saved_model/1.3/model.tflite (tflite, 511088 bytes, 18 tensors)

sequential/dense/BiasAdd/ReadVariableOp f4 [32]
-0.010471819 -0.013500547 0.020715835 -0.046665873 -0.039572723 -0.003229103 -0.029712288 0.0395857
0.0261359 -0.039309803 -0.031091241 0.024799578 0.035831884 0.014306522 0.0027663696 0.02434411
-0.0029290754 -0.0025728373 0.011677121 0.071095236 -0.023083778 -0.015906679 -0.032979466 0.0074814223
-0.018905563 -0.044972032 -0.03206861 -0.045501236 -0.019111887 -0.020002307 -0.042085156 0.019394107
00000000: fe91 2bbc 6631 5dbc 41b4 a93c b724 3fbd
00000010: 0217 22bd 5c9f 53bb 2f67 f3bc 9d24 223d
00000020: f41a d63c 5103 21bd 0fb3 febc 7c28 cb3c
00000030: 74c4 123d e765 6a3c fb4b 353b 4d6d c73c
00000040: bbf5 3fbb 0c9d 28bb 6551 3f3c 619a 913d
00000050: 311a bdbc b94e 82bc 7a15 07bd b826 f53b
00000060: d7df 9abc 9834 38bd 605a 03bd 815f 3abd
00000070: 8890 9cbc e1db a3bc 7c61 2cbd 64e0 9e3c

sequential/conv2d/BiasAdd/ReadVariableOp f4 [32]
0.0089129815 0.031031884 0.009503122 0.041300114 0.023273563 0.017122597 0.014966412 -0.00620737
0.0431955 0.04821467 0.031324565 -0.019985955 0.025040824 0.030390358 0.01697878 0.043049
0.032421686 0.019458897 0.0451368 0.008847549 -0.006547639 0.03053133 0.02753803 0.0150030255
0.012342321 0.008788936 -0.011249662 0.021158518 -0.00592835 0.021081444 0.0088103525 0.007950672
00000000: c107 123c 9436 fe3c fcb2 1b3c 4f2a 293d
00000010: 33a8 be3c b044 8c3c af35 753c 3267 cbbb
00000020: c4ed 303d bf7c 453d 304e 003d 96b9 a3bc
00000030: 6a22 cd3c 33f5 f83c 1517 8b3c 2654 303d
00000040: 9acc 043d 4468 9f3c 5de1 383d 4ff5 103c
00000050: 948d d6bb d71c fa3c 6f97 e13c 40cf 753c
00000060: 7237 4a3c 78ff 0f3c 8150 38bc a154 ad3c
00000070: 9b42 c2bb feb2 ac3c 4c59 103c 8943 023c

sequential/conv2d_3/BiasAdd/ReadVariableOp f4 [144]
-0.22563273 -0.04742171 -0.13727397 -0.10244274 -0.027190069 -0.19295952 -0.10460386 -0.04682639
-0.12408794 -0.17823392 -0.15151773 -0.104399815 -0.14690267 -0.15607935 -0.112748764 -0.08916303
-0.15068373 -0.10905778 -0.18352866 -0.12884252 -0.17342545 -0.18581402 -0.18124045 -0.15669855
-0.121844396 -0.15868972 -0.10776171 -0.19680472 -0.07500167 -0.12662323 -0.10528246 -0.1689564
-0.13808082 -0.09560099 -0.12519121 -0.14510839 -0.17096068 -0.046643425 -0.14195858 -0.23278967
-0.086497486 -0.09809095 -0.20261484 -0.13031536 -0.16309848 -0.11177869 -0.15259534 -0.10834943
-0.10340659 -0.082684755 -0.16990373 -0.18298247 -0.1053938 -0.16293687 -0.12108766 -0.14148723
-0.20447026 -0.13771266 -0.17016535 -0.18292561 -0.1825256 -0.11949774 -0.0749919 -0.08214394
-0.12509292 -0.12781519 -0.12961079 -0.14052302 -0.16554558 -0.15264843 -0.039801776 -0.22307037
-0.24130237 -0.13625792 -0.0815393 -0.14251116 -0.018042205 -0.15871961 -0.09210332 -0.080379166
-0.12208066 -0.13186686 -0.20862013 -0.13372646 -0.13329425 -0.07187092 -0.1601882 -0.20505567
-0.1296706 -0.20849411 -0.075849086 -0.124799415 -0.09516963 -0.14039932 -0.2022742 -0.15322047
-0.15681197 -0.14445768 -0.093653545 -0.23121934 -0.13044646 -0.1670735 -0.11294176 -0.0574972
-0.11484381 -0.19005328 -0.104706824 -0.18642907 -0.10507997 -0.2020688 -0.04123064 -0.13254875
-0.08328927 -0.17592596 -0.12560718 -0.06703536 -0.13644843 -0.078445904 -0.12657069 -0.1447332
-0.16499145 -0.11513168 -0.28271866 -0.21169034 -0.09729063 -0.2077763 -0.18806373 -0.09765986
-0.13900551 -0.16554767 -0.16046621 -0.07561769 -0.12758857 -0.16725811 -0.10636109 -0.17863196
-0.121930726 -0.07719657 -0.19930345 -0.14467356 -0.18309782 -0.16785343 -0.16747752 -0.18376888
00000000: 440c 67be 443d 42bd 8c91 0cbe 80cd d1bd
00000010: b5bd debc 2e97 45be 8c3a d6bd 07cd 3fbd
00000020: d121 febd f482 36be 7727 1bbe 92cf d5bd
00000030: a76d 16be 44d3 1fbe d3e8 e6bd 1b9b b6bd
00000040: d64c 1abe af59 dfbd f0ee 3bbe 4bef 03be
00000050: 7196 31be 0846 3ebe 1997 39be 9675 20be
00000060: 8e89 f9bd 8f7f 22be 2cb2 dcbd 2d87 49be
00000070: 7a9a 99bd 85a9 01be 559e d7bd e802 2dbe
00000080: 0f65 0dbe 74ca c3bd 2032 00be 4b97 14be
00000090: 5110 2fbe 2d0d 3fbd 975d 11be 6a60 6ebe
000000a0: 9825 b1bd e8e3 c8bd 447a 4fbe 6471 05be
000000b0: 4a03 27be 3aec e4bd f441 1cbe 4ee6 ddbd
000000c0: d6c6 d3bd a056 a9bd 3efb 2dbe c25f 3bbe
000000d0: b4d8 d7bd ecd8 26be cffc f7bd 07e2 10be
000000e0: a760 51be 8c04 0dbe d33f 2ebe da50 3bbe
000000f0: fee7 3abe 3bbb f4bd 5a95 99bd 153b a8bd
00000100: 5c18 00be fce1 02be b1b8 04be 44e5 0fbe
00000110: c884 29be df4f 1cbe 3007 23bd 8f6c 64be
00000120: f817 77be 3287 0bbe 14fe a6bd 72ee 11be
00000130: 3fcd 93bc 6587 22be aaa0 bcbd d59d a4bd
00000140: 6d05 fabd 1b08 07be 84a0 55be 97ef 08be
00000150: 4a7e 08be 1031 93bd 6008 24be 1dfa 51be
00000160: 5fc8 04be 7b7f 55be c456 9bbd d696 ffbd
00000170: 4ce8 c2bd d7c4 0fbe f820 4fbe d4e5 1cbe
00000180: 5193 20be b7ec 13be 6ecd bfbd c3c4 6cbe
00000190: c293 05be 5115 2bbe 024e e7bd 2f82 6bbd
000001a0: 3b33 ebbd 549d 42be 8870 d6bd 43e7 3ebe
000001b0: 2b34 d7bd 20eb 4ebe 76e1 28bd dcba 07be
000001c0: 9193 aabd ef25 34be 2b9f 00be d649 89bd
000001d0: 23b9 0bbe 3fa8 a0bd bf9b 01be f134 14be
000001e0: 85f3 28be 29ca ebbd 80c0 90be 5ac5 58be
000001f0: 4f40 c7bd 4fc3 54be c793 40be e501 c8bd
00000200: 7657 0ebe 5485 29be 4151 24be 73dd 9abd
00000210: 94a6 02be b645 2bbe d8d3 d9bd 4ceb 36be
00000220: d1b6 f9bd 3c19 9ebd 3416 4cbe 4e25 14be
00000230: ff7d 3bbe c5e1 2bbe 3a7f 2bbe e92d 3cbe

sequential/conv2d_2/BiasAdd/ReadVariableOp f4 [96]
-0.07678829 -0.014596815 -0.08273284 -0.14762062 -0.10807029 -0.19866848 -0.20924471 -0.26736176
-0.17859948 -0.18994161 -0.21198624 -0.1296792 -0.17446606 -0.14013939 -0.11945999 -0.06541607
-0.11072759 -0.21104613 -0.1802826 -0.049884994 -0.123346396 -0.21561788 -0.1404198 -0.11563937
-0.14520514 -0.12116476 -0.14278686 -0.13171975 -0.15317042 -0.11228776 -0.16265732 -0.24257292
-0.14284442 -0.18381211 -0.14852996 -0.05469414 -0.18260649 -0.07308792 -0.04179283 -0.16843191
-0.16606978 -0.082215026 -0.11371052 -0.15122086 -0.127448 -0.13965002 -0.17299871 -0.19951412
-0.19635868 -0.12811743 -0.15288804 -0.16740961 -0.10233651 -0.17386934 -0.112178124 -0.165928
-0.13730226 -0.16194358 -0.16447575 -0.23278329 -0.17826584 -0.12619965 -0.08063882 -0.17531502
-0.15816247 -0.16338623 -0.18181798 -0.10767149 -0.10566168 -0.108877644 -0.1633397 -0.16906795
-0.20106149 -0.22635554 -0.20080516 -0.11655892 -0.06962143 -0.254466 -0.12908497 -0.1338902
-0.112952396 0.009611191 -0.17073432 -0.15645581 -0.12353699 -0.081155516 -0.16444646 -0.17378663
-0.15509921 -0.08523614 -0.16122198 -0.26793665 -0.14424787 -0.23530126 -0.11615884 -0.15327603
00000000: 2e43 9dbd 7b27 6fbc d66f a9bd dc29 17be
00000010: f553 ddbd c06f 4bbe 3f44 56be a4e3 88be
00000020: c8e2 36be 0e80 42be ec12 59be a0ca 04be
00000030: 3ba7 32be b380 0fbe 70a7 f4bd dcf8 85bd
00000040: 26c5 e2bd 7a1c 58be 009c 38be 3554 4cbd
00000050: 099d fcbd efca 5cbe 35ca 0fbe 56d4 ecbd
00000060: a8b0 14be 3b25 f8bd b836 12be 8be1 06be
00000070: b5d8 1cbe 20f7 e5bd a48f 26be 0965 78be
00000080: cf45 12be 3e39 3cbe 3d18 18be f606 60bd
00000090: 32fd 3abe 1faf 95bd f52e 2bbd 6a79 2cbe
000000a0: 320e 2abe 5a60 a8bd 10e1 e8bd a4d9 1abe
000000b0: ba81 02be 6a00 0fbe 9326 31be 6e4d 4cbe
000000c0: 4012 49be 3731 03be af8e 1cbe 6d6d 2bbe
000000d0: ce95 d1bd ce0a 32be a5bd e5bd 08e9 29be
000000e0: f798 0cbe 8ad4 25be 556c 28be be5e 6ebe
000000f0: 528b 36be 7b3a 01be f725 a5bd c885 33be
00000100: 58f5 21be b84e 27be 7e2e 3abe df82 dcbd
00000110: 2765 d8bd 3efb debd 8642 27be 2620 2dbe
00000120: 10e3 4dbe bfc9 67be de9f 4dbe 71b6 eebd
00000130: ae95 8ebd 5e49 82be da2e 04be 831a 09be
00000140: 9653 e7bd 4278 1d3c fad4 2ebe f435 20be
00000150: f600 fdbd dd34 a6bd a764 28be 1ff5 31be
00000160: 54d2 1ebe 4990 aebd 6017 25be fe2e 89be
00000170: b7b5 13be d0f2 70be b0e4 edbd 64f4 1cbe

sequential/conv2d_1/BiasAdd/ReadVariableOp f4 [64]
-0.13155429 -0.118058324 -0.14199714 0.050868306 -0.09541413 -0.07749376 -0.11470126 -0.006325187
-0.12886874 -0.093375 -0.07018399 -0.092560984 -0.17542154 -0.074769706 -0.08269015 -0.19917892
-0.12309553 -0.11802048 -0.12077906 -0.10770305 -0.11612452 -0.19626322 -0.107693635 -0.1484368
-0.107186 -0.10873407 -0.17922007 -0.06944541 -0.20714034 -0.04622696 -0.16235137 -0.08244233
-0.06344819 -0.104900114 -0.08879788 0.0052273236 -0.12863591 -0.03900433 -0.0994149 -0.14856218
-0.0773451 -0.105871744 -0.12761253 -0.02205094 0.0031786235 -0.08567138 -0.099195786 -0.12837565
-0.15873525 -0.0900549 -0.110443465 -0.1419673 -0.23103598 -0.08936761 -0.10131072 -0.16016792
-0.10240738 -0.09300237 -0.16119045 -0.16445191 -0.13684435 -0.09536061 -0.13259019 -0.13091713
00000000: 2bb6 06be 90c8 f1bd b367 11be 495b 503d
00000010: 7c68 c3bd 0cb5 9ebd 7fe8 eabd 8443 cfbb
00000020: 2bf6 03be 643b bfbd a0bc 8fbd 9d90 bdbd
00000030: b4a1 33be dc20 99bd 7459 a9bd 8ff5 4bbe
00000040: 8219 fcbd b9b4 f1bd 035b f7bd 6b93 dcbd
00000050: b1d2 edbd 3af9 48be 7b8e dcbd d1ff 17be
00000060: 5584 dbbd f8af debd 7785 37be 6539 8ebd
00000070: 991c 54be 7b58 3dbd 703f 26be 86d7 a8bd
00000080: 20f1 81bd dfd5 d6bd aadb b5bd f849 ab3b
00000090: 22b9 03be 01c3 1fbd 0a9a cbbd af20 18be
000000a0: 1c67 9ebd 49d3 d8bd dcac 02be 2ca4 b4bc
000000b0: 7450 503b 7a74 afbd 2927 cbbd e874 03be
000000c0: 7e8b 22be b46e b8bd 2f30 e2bd e05f 11be
000000d0: b294 6cbe 5e06 b7bd ff7b cfbd 0f03 24be
000000e0: f6ba d1bd 0778 bebd 1c0f 25be 1566 28be
000000f0: ed20 0cbe 6c4c c3bd b9c5 07be 240f 06be

sequential/batch_normalization/FusedBatchNormV3 f4 [32]
30.894299 32.16793 27.478127 18.276844 25.156864 21.768845 28.635698 13.422579
22.905827 21.752195 23.97421 32.991135 37.064457 29.340433 32.975937 21.023542
19.415543 25.445484 29.49524 15.555238 31.437119 17.977942 23.580793 29.886078
29.657969 18.377037 24.601635 21.429085 10.839193 23.020384 29.658243 34.44101
00000000: 8627 f741 f6ab 0042 34d3 db41 fa36 9241
00000010: 4241 c941 9826 ae41 e915 e541 e2c2 5641
00000020: 223f b741 7f04 ae41 2fcb bf41 ecf6 0342
00000030: 0142 1442 35b9 ea41 5ce7 0342 3730 a841
00000040: 0853 9b41 5a90 cb41 40f6 eb41 41e2 7841
00000050: 387f fb41 d3d2 8f41 77a5 bc41 b016 ef41
00000060: 8543 ed41 2c04 9341 26d0 c441 c46e ab41
00000070: 566d 2d41 bf29 b841 1544 ed41 98c3 0942

sequential/batch_normalization/FusedBatchNormV31 f4 [32]
-0.24864423 -1.1171616 -0.3592919 -1.0554574 -0.35417747 -0.08468352 -0.05734998 -0.41859275
-1.0373341 -1.0941957 -0.113514856 0.02569983 -0.7526547 -0.0541533 0.13442239 -0.85196143
-0.29515797 -0.36611843 -1.3658279 -0.7204434 -7.1197046e-06 -0.8124232 -1.006039 -0.009217612
0.020361505 -0.39376336 0.044952817 -0.69445044 -1.1880797 -0.46667266 -0.3669603 0.045487538
00000000: 989c 7ebe 27ff 8ebf 1cf5 b7be 3a19 87bf
00000010: c056 b5be 8e6e adbd d0e7 6abd ca51 d6be
00000020: 5dc7 84bf 9b0e 8cbf 7a7a e8bd 7388 d23c
00000030: faad 40bf dacf 5dbd 06a6 093e 251a 5abf
00000040: f21e 97be e073 bbbe 73d3 aebf fb6e 38bf
00000050: cce5 eeb6 f8fa 4fbf e3c5 80bf 7805 17bc
00000060: 2ccd a63c 5a9b c9be 7220 383d 81c7 31bf
00000070: ff12 98bf b8ef eebe 38e2 bbbe 2451 3a3d

sequential/batch_normalization_1/FusedBatchNormV3 f4 [64]
16.020073 12.797604 10.305569 3.7484446 5.3303304 8.6066265 8.174643 3.6367059
12.907573 11.036812 6.1364756 5.205421 12.193496 12.2942095 11.68052 17.923792
17.018541 8.145497 5.904313 11.780361 8.578631 6.0179377 4.9323893 8.485915
6.3756123 12.284943 5.5693903 7.932227 10.661143 4.6903243 5.642489 6.051332
10.98032 7.872344 4.133381 6.944262 10.682351 5.679482 16.58778 5.5058603
11.511823 14.055949 5.6789646 5.167573 5.015271 12.097419 7.5614257 13.952965
7.2896047 7.514897 9.401812 10.168505 11.907282 9.1393585 7.888581 13.088392
6.103547 8.968382 4.481685 6.932796 18.128857 12.791627 9.560798 4.9116774
00000000: 1c29 8041 fcc2 4c41 9ce3 2441 84e6 6f40
00000010: 1192 aa40 beb4 0941 56cb 0241 cabf 6840
00000020: 6b85 4e41 c896 3041 025e c440 cf92 a640
00000030: 8f18 4341 15b5 4441 69e3 3a41 ed63 8f41
00000040: f925 8841 f553 0241 22f0 bc40 5c7c 3c41
00000050: 1342 0941 f292 c040 22d6 9d40 4fc6 0741
00000060: 0405 cc40 208f 4441 7238 b240 ced4 fd40
00000070: 0b94 2a41 2317 9640 458f b440 83a4 c140
00000080: 64af 2f41 3eea fb40 a844 8440 6537 de40
00000090: e9ea 2a41 51be b540 c6b3 8441 0230 b040
000000a0: 6d30 3841 2be5 6041 14ba b540 c25c a540
000000b0: 1a7d a040 078f 4141 33f7 f140 583f 5f41
000000c0: 7144 e940 097a f040 d26d 1641 32b2 2241
000000d0: 3a84 3e41 d03a 1241 416f fc40 0e6a 5141
000000e0: 4250 c340 7e7e 0f41 f769 8f40 77d9 dd40
000000f0: e607 9141 81aa 4c41 07f9 1841 762c 9d40

sequential/batch_normalization_1/FusedBatchNormV31 f4 [64]
0.057237446 -0.2698528 -0.110527724 -0.24572396 -0.39492637 -0.36297792 -0.07140812 -0.47562444
-0.4583022 0.06890535 -0.33892995 -0.5661357 -0.106279396 -0.12669808 -0.2257739 0.21321818
0.00032804906 -0.5935493 -0.19149159 -0.051318064 -0.3536778 -0.05887626 -0.47580743 -0.058024332
-0.47003368 0.15474908 -0.17237645 -0.4872883 0.27378148 -0.45956817 -0.1237205 -0.3452571
-0.54506326 -0.33696854 -0.07225746 -0.56636566 -0.41501573 -0.8191806 -0.33275324 -0.061515585
-0.2584034 -0.0852689 0.11129174 -0.36138847 -0.85681796 -0.22165644 -0.08688739 -0.36659938
-0.113018855 -0.31262392 -0.0924804 0.10188304 0.1147241 -0.32629988 -0.02763234 -0.39119402
-0.5990342 -0.050644428 0.09585297 -0.1288003 0.065160364 -0.16913463 0.12123722 -0.49385184
00000000: d071 6a3d 252a 8abe 5c5c e2bd 109f 7bbe
00000010: ca33 cabe 3ed8 b9be 6c3e 92bd 0c85 f3be
00000020: 96a6 eabe 401e 8d3d 3a88 adbe 45ee 10bf
00000030: 03a9 d9bd 24bd 01be 4631 67be de55 5a3e
00000040: 00fe ab39 d9f2 17bf 5f16 44be e432 52bd
00000050: 4215 b5be 3c28 71bd 089d f3be ecaa 6dbd
00000060: 41a8 f0be 8b76 1e3e 7483 30be da7d f9be
00000070: 162d 8c3e 854c ebbe 2c61 fdbd 8ac5 b0be
00000080: 4489 0bbf 2487 acbe b8fb 93bd 57fd 10bf
00000090: f17c d4be d2b5 51bf a25e aabe c4f7 7bbd
000000a0: 734d 84be 76a1 aebd ecec e33d e907 b9be
000000b0: 6c58 5bbf e8f9 62be 04f2 b1bd eab2 bbbe
000000c0: 6e76 e7bd 3e10 a0be 5d66 bdbd 0ea8 d03d
000000d0: 78f4 ea3d c710 a7be 385d e2bc 954a c8be
000000e0: 4e5a 19bf 8870 4fbd 904e c43d 3ae4 03be
000000f0: cc72 853d a131 2dbe 384b f83d 26da fcbe

sequential/batch_normalization_2/FusedBatchNormV3 f4 [96]
5.5812073 5.4437194 8.301234 14.633619 7.082656 7.13444 6.3749213 22.903175
8.411783 8.730098 6.5094843 3.492544 3.7670023 9.250427 5.2810597 3.4282699
3.4724402 10.144084 4.0153008 5.5337625 3.1854715 2.9591928 4.2529235 5.1573477
11.301429 4.515614 17.513916 5.168466 4.924939 9.445087 12.566319 6.373534
7.898306 8.276495 3.6475837 4.355236 11.316963 5.6607237 9.214369 9.65748
8.801018 5.222012 8.965555 9.305461 9.935507 6.535154 9.191033 8.237884
9.5561905 8.370759 8.896911 5.487724 3.3634222 14.903895 5.3524613 10.956016
8.66425 9.810429 7.941456 10.019709 10.81394 4.3216357 4.2080746 6.697743
6.267988 5.272021 4.614898 9.646494 3.684949 7.5931406 8.280199 4.230932
8.669282 9.229896 6.799009 8.563677 3.6066651 15.941236 6.243291 8.270962
4.6834874 3.930067 3.9902937 6.0440807 3.9657722 6.2667456 3.2788944 5.868967
5.1830482 5.6278725 12.218059 7.4715996 6.578098 9.310905 5.478924 3.3507514
00000000: 4099 b240 f332 ae40 dbd1 0441 4e23 6a41
00000010: 1ea5 e240 554d e440 5bff cb40 b439 b741
00000020: aa96 0641 7bae 0b41 b24d d040 d785 5f40
00000030: 9116 7140 c001 1441 71fe a840 c668 5b40
00000040: 763c 5e40 2b4e 2241 587d 8040 9514 b140
00000050: c4de 4b40 6a63 3d40 f317 8840 fe08 a540
00000060: a7d2 3441 e97f 9040 801c 8c41 1364 a540
00000070: 1a99 9d40 141f 1741 a50f 4941 fef3 cb40
00000080: ecbe fc40 866c 0441 0372 6940 185e 8b40
00000090: 4812 3541 a624 b540 0e6e 1341 0a85 1a41
000000a0: f8d0 0c41 b91a a740 ea72 0f41 2be3 1441
000000b0: d6f7 1e41 fb1f d140 790e 1341 5fce 0341
000000c0: 28e6 1841 a1ee 0541 bf59 0e41 6f9b af40
000000d0: 4f42 5740 5b76 6e41 5d47 ab40 d74b 2f41
000000e0: c5a0 0a41 84f7 1c41 6820 fe40 ba50 2041
000000f0: e605 2d41 d74a 8a40 8ca8 8640 e953 d640
00000100: 5c93 c840 65b4 a840 3fad 9340 0a58 1a41
00000110: 34d6 6b40 02fb f240 b27b 0441 cc63 8740
00000120: 61b5 0a41 a7ad 1341 7b91 d940 d204 0941
00000130: 9ad3 6640 4d0f 7f41 0ac9 c740 dc55 0441
00000140: 21df 9540 3886 7b40 f960 7f40 1c69 c140
00000150: 36cf 7d40 2e89 c840 68d9 5140 94ce bb40
00000160: 88db a540 8817 b440 2b7d 4341 5817 ef40
00000170: c77f d240 78f9 1441 5853 af40 b672 5640

sequential/batch_normalization_2/FusedBatchNormV31 f4 [96]
-0.3173632 -0.22664192 -0.20866244 -0.054128774 -0.034166664 -0.6627004 -0.30196375 0.008922679
-0.20514785 0.018554509 -0.054574102 0.070319235 -0.14412937 -0.25336474 -0.059580058 -0.56238353
-0.24286526 0.018365964 -0.012955338 0.09510246 -0.29564935 0.09651849 -0.52347314 -0.13828109
0.045381546 -0.3794829 -0.13139418 -0.33564633 -0.2207252 -0.073276654 0.10522587 0.0020045936
-0.3547568 -0.15071647 -0.20759654 -0.0749971 0.12570588 -0.3017121 -0.23537412 -0.2730913
-0.36267748 -0.3439224 -0.34110522 -0.17583805 0.035405472 -0.3130358 -0.27377397 -0.47091258
-0.26342592 -0.16047764 0.045271263 -0.079540715 -0.30736452 -0.10351303 -0.23594038 -0.29769063
-0.09019792 -0.5181436 -0.069473475 -0.501592 -0.04037915 -0.33620793 -0.2594194 -0.29326543
-0.016100943 -0.34054798 0.009608895 -0.020111695 -0.005551815 -0.11455182 -0.1924607 0.030955434
-0.1310544 -0.19373712 -0.028468937 -0.0057983994 -0.14378685 -0.32404846 0.041450784 -0.14418246
-0.21572177 -0.31454414 0.051421404 -0.18310973 -0.0049379766 -0.10175799 -0.13334204 -0.28372583
-0.044565305 -0.32185775 -0.3992893 0.013581693 -0.05061516 -0.2631384 -0.17935921 0.041959196
00000000: 6e7d a2be d214 68be 9bab 55be 22b6 5dbd
00000010: 58f2 0bbd bca6 29bf fe9a 9abe 6e30 123c
00000020: 4712 52be a0ff 973c 1889 5fbd 8803 903d
00000030: a696 13be 06b9 81be 380a 74bd 5ef8 0fbf
00000040: acb1 78be 3874 963c a042 54bc 14c5 c23d
00000050: 5a5f 97be 7cab c53d 5602 06bf 8f99 0dbe
00000060: 00e2 393d 954b c2be 328c 06be d6d9 abbe
00000070: c905 62be 1212 96bd a980 d73d 805f 033b
00000080: afa2 b5be 6b55 1abe 3094 54be 1498 99bd
00000090: 0bb9 003e 027a 9abe ea05 71be 9fd2 8bbe
000000a0: ddb0 b9be 9916 b0be 58a5 aebe e40e 34be
000000b0: 5405 113d 3a46 a0be 1a2c 8cbe 741b f1be
000000c0: c3df 86be 4054 24be 5c6e 393d 3ee6 a2bd
000000d0: e25e 9dbe a4fe d3bd 5b9a 71be e86a 98be
000000e0: b0b9 b8bd 0fa5 04bf 1c48 8ebd 5568 00bf
000000f0: 9c64 25bd 7223 acbe 9fd2 84be e326 96be
00000100: 20e6 83bc 4e5c aebe a06e 1d3c 48c1 a4bc
00000110: 00ec b5bb 259a eabd 6b14 45be 4096 fd3c
00000120: 2033 06be 0663 46be b037 e9bc 8000 bebb
00000130: dc3c 13be aee9 a5be 4cc8 293d 91a4 13be
00000140: 2be6 5cbe ee0b a1be 409f 523d 1e81 3bbe
00000150: c0ce a1bb 7e66 d0bd d18a 08be 8344 91be
00000160: 1c8a 36bd 8aca a4be a66f ccbe c085 5e3c
00000170: d851 4fbd 14ba 86be f1a9 37be 68dd 2b3d

sequential/batch_normalization_3/FusedBatchNormV3 f4 [144]
8.308221 5.6703396 5.7636075 12.164879 6.163385 10.8817005 6.275942 6.9325833
5.403058 11.370008 13.007511 4.364774 8.02231 8.309382 11.440894 10.432455
8.137028 10.638406 6.6622667 4.2246227 3.8217907 6.649525 9.761231 12.622672
7.981654 3.3095357 7.729499 4.6351423 9.635179 5.9137235 7.287884 6.473294
7.1548095 8.096363 12.040562 4.681392 3.398283 6.586606 9.486442 6.324421
7.999628 3.877692 8.298787 7.2649765 7.693223 4.480236 6.7102838 5.892638
6.711481 4.5744166 9.83914 15.052675 3.8395731 12.23446 11.197763 2.9793518
5.1237845 5.5882792 8.765828 9.155831 11.638709 2.3144722 6.835833 7.5843096
7.9617987 2.160763 3.5237396 7.0850105 7.6058674 1.9667107 5.7162843 7.0758996
3.2507896 1.4251733 4.215663 8.278235 2.3964195 10.66764 6.2592087 2.5316942
6.4054136 6.188603 3.2367148 8.149593 8.347698 6.598197 18.20801 8.621765
4.758007 4.9804935 12.799498 5.2637887 3.5381083 6.646063 7.9408364 3.7686608
13.064479 7.8977823 8.449678 5.492028 6.745708 11.67481 2.190177 7.423252
5.743304 8.720527 11.010094 9.5955925 7.5139756 7.6668367 4.871275 5.999976
6.422402 7.355681 6.4060416 8.69521 5.5756836 6.6996193 11.200105 3.1538363
3.4641979 6.110298 5.1128583 6.408771 9.57949 3.3393066 7.742507 5.1676345
11.711553 8.97731 5.221734 5.931901 5.471934 1.8996475 8.294948 6.7293677
6.5862904 8.019278 6.2550697 4.2766733 7.6824408 8.750865 2.4669216 4.9649014
00000000: 79ee 0441 6c73 b540 796f b840 58a3 4241
00000010: 733a c540 721b 2e41 84d4 c840 b9d7 dd40
00000020: dae5 ac40 8eeb 3541 c41e 5041 3bac 8b40
00000030: 625b 0041 3bf3 0441 e70d 3741 56eb 2641
00000040: 4431 0241 e936 2a41 4a31 d540 1c30 8740
00000050: 3898 7440 e9c8 d440 012e 1c41 77f6 4941
00000060: b669 ff40 6fcf 5340 0e58 f740 1653 9440
00000070: b129 1a41 393d bd40 5936 e940 3925 cf40
00000080: 33f4 e440 b48a 0141 24a6 4041 f7cd 9540
00000090: 787d 5940 7ac5 d240 77c8 1741 a861 ca40
000000a0: f4fc ff40 1b2c 7840 d5c7 0441 b07a e840
000000b0: e22e f640 185e 8f40 a5ba d640 7e90 bc40
000000c0: 74c4 d640 9f61 9240 1e6d 1d41 c2d7 7041
000000d0: 91bb 7540 59c0 4341 0a2a 3341 b3ad 3e40
000000e0: 0bf6 a340 2fd3 b240 d540 0c41 497e 1241
000000f0: 2738 3a41 5020 1440 25bf da40 aab2 f240
00000100: 0ec7 fe40 f149 0a40 f384 6140 68b8 e240
00000110: 4463 f340 2dbd fb3f cdeb b640 c56d e240
00000120: f00c 5040 146c b63f b6e6 8640 a773 0441
00000130: f05e 1940 a7ae 2a41 704b c840 4707 2240
00000140: 26f9 cc40 0909 c640 5626 4f40 bc64 0241
00000150: 2c90 0541 6e24 d340 01aa 9141 c0f2 0941
00000160: 9841 9840 3460 9f40 beca 4c41 f570 a840
00000170: 5e70 6240 8cac d440 551b fe40 bd31 7140
00000180: 1b08 5141 a2ba fc40 e231 0741 b2be af40
00000190: d7dc d740 06cc 3a41 dc2b 0c40 488b ed40
000001a0: 25c9 b740 4787 0b41 5829 3041 8c87 1941
000001b0: 7d72 f040 ba56 f540 7ce1 9b40 ceff bf40
000001c0: 5184 cd40 bd61 eb40 4bfe cc40 951f 0b41
000001d0: 006c b240 4863 d640 a133 3341 74d8 4940
000001e0: 6bb5 5d40 9087 c340 899c a340 a714 cd40
000001f0: 9745 1941 33b7 5540 9ec2 f740 435d a540
00000200: 8562 3b41 10a3 0f41 7218 a740 22d2 bd40
00000210: 151a af40 a627 f33f 1bb8 0441 fb56 d740
00000220: e4c2 d240 f64e 0041 8829 c840 82da 8840
00000230: 8ed6 f540 8b03 0c41 0be2 1d40 79e0 9e40

sequential/batch_normalization_3/FusedBatchNormV31 f4 [144]
-0.08895457 -0.13969907 -0.11906472 -0.10993278 -0.12029988 -0.10802151 -0.12162394 -0.12125438
-0.122527875 -0.03897575 -0.15239519 -0.18409012 -0.14684266 -0.08862989 -0.07762526 -0.16800347
-0.06966896 -0.13332771 -0.11047995 -0.1897309 -0.124239296 -0.15523627 -0.09802622 -0.021893762
-0.15671703 -0.20649303 -0.20088087 -0.16986828 -0.146453 -0.12030369 -0.091865174 -0.19981912
-0.048266657 -0.11332057 -0.06846982 -0.17875959 -0.20538796 -0.18774213 -0.1819302 -0.04516939
-0.08833863 -0.20202097 -0.16088153 -0.13609445 -0.15513647 -0.20357974 -0.106732085 -0.217071
-0.198682 -0.16046467 -0.086121306 -0.098229654 -0.13628076 -0.08046748 -0.10891028 -0.17743558
-0.13684136 -0.15964569 -0.059476376 -0.023126304 -0.065789826 -0.22770754 -0.22097924 -0.12343514
-0.10475689 -0.26380208 -0.20355548 -0.13612927 -0.07045383 -0.2832715 -0.19597578 -0.13058263
-0.122906774 -0.3702074 -0.09951867 -0.10128436 -0.30690664 -0.10728814 -0.16015574 -0.28061262
-0.15373991 -0.14165407 -0.1459129 -0.10660587 -0.1380236 -0.14812672 -0.08256274 -0.08399858
-0.1447679 -0.14525606 -0.11454187 -0.21980092 -0.19253653 -0.14134681 -0.14673004 -0.1608561
-0.09789299 -0.112777084 -0.11111585 -0.12964363 -0.11111924 -0.02686451 -0.18548283 -0.15839021
-0.11888918 -0.09347297 -0.07674906 -0.059957705 -0.16282679 -0.097584985 -0.18609902 -0.14478171
-0.18014453 -0.06689389 -0.20025288 -0.16490561 -0.24288605 -0.17965539 -0.07888884 -0.17108592
-0.17236403 -0.14060402 -0.12400574 -0.06757844 -0.16745026 -0.19535223 -0.12715991 -0.16540343
-0.12654538 -0.09963 -0.16147457 -0.13580328 -0.05162008 -0.34362763 -0.10324886 -0.09732725
-0.11364037 -0.22093448 -0.18240274 -0.16183943 -0.18534207 -0.12367712 -0.17928234 -0.16727948
00000000: d02d b6bd 460d 0fbe 34d8 f3bd 7024 e1bd
00000010: c95f f6bd 623a ddbd f915 f9bd 3754 f8bd
00000020: e5ef fabd 09a5 1fbd 7c0d 1cbe 1f82 3cbe
00000030: ec5d 16be 9683 b5bd fef9 9ebd 1a09 2cbe
00000040: 9aae 8ebd 0f87 08be 5043 e2bd d148 42be
00000050: 2c71 febd 42f6 1ebe f9c1 c8bd 8c5a b3bc
00000060: 6e7a 20be e972 53be b7b3 4dbe f3f1 2dbe
00000070: c6f7 15be c861 f6bd cf23 bcbd 629d 4cbe
00000080: 42b3 45bd 9d14 e8bd e839 8cbd c10c 37be
00000090: 3951 52be 793f 40be e94b 3abe 8a03 39bd
000000a0: e2ea b4bd 96de 4ebe 21be 24be 585c 0bbe
000000b0: 18dc 1ebe 3577 50be 5a96 dabd dc47 5ebe
000000c0: 4b73 4bbe da50 24be 5e60 b0bd a12c c9bd
000000d0: 2f8d 0bbe 22cc a4bd 5a0c dfbd acb1 35be
000000e0: 2420 0cbe 297a 23be 809d 73bd 6073 bdbc
000000f0: d1bc 86bd 2a2c 69be 6248 62be 90cb fcbd
00000100: c88a d6bd 1111 87be d970 50be 7965 0bbe
00000110: 194a 90bd f608 91be e0ad 48be 74b7 05be
00000120: 8cb6 fbbd d38b bdbe 72d0 cbbd 2d6e cfbd
00000130: de22 9dbe e2b9 dbbd deff 23be 75ac 8fbe
00000140: ff6d 1dbe c40d 11be 316a 15be 2e54 dabd
00000150: 0f56 0dbe 88ae 17be a716 a9bd 7307 acbd
00000160: 093e 14be 01be 14be ee94 eabd 7e13 61be
00000170: 4c28 45be 38bd 10be 6640 16be 76b7 24be
00000180: 1f7c c8bd acf7 e6bd b590 e3bd 4dc1 04be
00000190: 7c92 e3bd f612 dcbc 36ef 3dbe 0b31 22be
000001a0: 2c7c f3bd c26e bfbd 9c2e 9dbd 3696 75bd
000001b0: 11bc 26be a3da c7bd be90 3ebe a841 14be
000001c0: cf77 38be aaff 88bd 170f 4dbe 04dd 28be
000001d0: 1fb7 78be 95f7 37be 7990 a1bd 2631 2fbe
000001e0: 3280 30be 80fa 0fbe b9f6 fdbd 9166 8abd
000001f0: 1578 2bbe 6a0a 48be 3536 02be 845f 29be
00000200: 1d95 01be d00a ccbd 9759 25be 0410 0bbe
00000210: 946f 53bd f6ef afbe 2374 d3bd 8253 c7bd
00000220: 48bc e8bd a63c 62be c9c7 3abe 3cb9 25be
00000230: 50ca 3dbe 6e4a fdbd ca95 37be 504b 2bbe

sequential/conv2d/Conv2D f4 [32, 3, 3, 3]
-0.043750715 -0.008949529 0.11828948 -0.05710277 -0.008605725 0.06610345 0.048435923 0.0033049237
-0.10002833 0.00064117496 0.016170109 0.08574684 -0.016023904 0.006340311 -0.038327683 0.036125563
-0.023368951 -0.10773867 -0.0060588494 0.04025736 0.058769416 0.010615576 -0.017344777 -0.019634858
0.018232025 -0.050527588 -0.09588151 0.033355497 -0.07386348 0.057493426 -0.055715922 -0.03948074
0.045190804 -0.058757205 0.012684414 0.058786012 0.067105666 -0.0639562 -0.040888276 -0.06273404
0.08626293 0.0075097694 -0.050698753 0.07598256 -0.005203921 0.09769993 -0.0747321 -0.070091575
0.07904935 0.05356639 -0.072736956 -0.045852203 0.040925477 -0.00038526976 0.03223172 -0.12447787
-0.016772069 0.12198542 0.020376282 0.10343019 -0.029474152 -0.012720713 -0.1016784 -0.062381107
0.074750416 0.108740635 0.03139766 0.117484055 -0.07981917 0.08572597 0.040776007 0.112540245
-0.11095498 -0.08646513 -0.04948711 -0.13472137 -0.12915766 -0.06065809 0.046896644 0.09652867
-0.017742366 -0.08652559 0.044292558 0.12094052 -0.027107656 -0.047868535 0.04673573 -0.08192982
-0.09895641 -0.12435524 0.091046154 0.109703094 0.07451827 -0.025988853 0.043458052 -0.07914851
0.06670752 -0.090342544 -0.086523145 0.10945054 -0.0041269576 -0.087368794 0.09036959 0.0726079
0.0918125 -0.07050732 -0.0983785 0.0697659 0.03853624 -0.03253327 0.09587733 -0.027262365
-0.016473325 0.03756157 -0.08902307 0.06252598 0.0060519734 0.018831462 0.08868816 -0.08247084
-0.014098429 0.052998364 0.015799731 -0.041257944 -0.08476072 -0.10797578 0.12448585 -0.053001985
-0.059933715 0.013259835 -0.035766013 0.009409689 -0.039314236 0.027947735 0.054863818 -0.07170561
0.02117788 -0.100235276 -0.11628506 -0.047651414 0.08346231 -0.015881225 0.095341094 0.07354176
0.060858045 -0.13491334 0.058373716 0.09028676 0.0645575 -0.10420604 0.03997432 0.06632025
0.022193365 -0.06697998 0.031127276 -0.026339924 -0.024140343 -0.06396947 -0.05375335 0.07509418
-0.032366402 0.016076142 -0.044473045 -0.108978145 -0.032827083 0.058787376 0.05869739 0.08176129
-0.007880642 -0.078627035 -0.010655021 -0.11216733 -0.11066479 -0.03518314 -0.033723816 -0.11660538
0.09396226 -0.008062683 -0.091673814 -0.07342754 0.009512154 0.08233491 0.11038574 0.077305734
0.085102804 -0.029729888 0.110729694 0.10163655 -0.05273827 0.01623234 0.043570403 0.13515152
-0.11881507 0.016489357 0.013528021 -0.1160799 0.07889402 0.12330421 0.023578934 0.009156796
-0.0067004403 -0.13126305 0.021604495 0.0058946586 -0.07174893 0.026669737 -0.05013868 -0.024301542
-0.12568533 0.10646342 0.012433498 -0.04748958 -0.04110779 0.055252697 -0.013255443 0.11406503
0.050483394 0.13254954 -0.0018766347 -0.05701148 0.06694577 -0.10217304 -0.05116279 0.07857773
-0.043271147 0.033319253 -0.056565735 0.059718233 0.10690179 0.05559684 0.056279883 0.038024675
-0.008052105 0.070743516 -0.024945984 -0.09281092 -0.01178107 -0.072366096 -0.08647272 -0.112551875
-0.019695481 -0.07663331 0.08299173 -0.114858896 -0.07514222 -0.046353944 0.058160126 0.06174547
-0.09643616 0.021941762 0.061707795 0.07144178 -0.10449131 -0.052397355 0.020937258 0.08740063
00000000: f333 33bd 0ca1 12bc c141 f23d 98e4 69bd
00000010: 07ff 0cbc 3f61 873d bf64 463d 6b97 583b
00000020: a7db ccbd 8614 283a 2d77 843c 0a9c af3d
00000030: 9044 83bc 62c2 cf3b 7dfd 1cbd 66f8 133d
00000040: 3e70 bfbc 18a6 dcbd 5089 c6bb e7e4 243d
00000050: 33b8 703d f4ec 2d3c a216 8ebc 48d9 a0bc
00000060: 545b 953c 04f6 4ebd 865d c4bd c69f 083d
00000070: bc45 97bd 3a7e 6b3d 6136 64bd 8eb6 21bd
00000080: fe19 393d 65ab 70bd 4ad2 4f3c 9ac9 703d
00000090: b26e 893d 78fb 82bd 777a 27bd b47a 80bd
000000a0: 9eaa b03d 8314 f63b 7fa9 4fbd bf9c 9b3d
000000b0: a785 aabb e716 c83d 250d 99bd 2c8c 8fbd
000000c0: a0e4 a13d 6e68 5b3d 1df7 94bd 85cf 3bbd
000000d0: 79a1 273d 08fe c9b9 6805 043d 41ee febd
000000e0: 9465 89bc 7ed3 f93d 29ec a63c 35d3 d33d
000000f0: c773 f1bc 8a6a 50bc c43c d0bd 5583 7fbd
00000100: bf16 993d 69b3 de3d d59a 003d 7b9b f03d
00000110: 3c78 a3bd 1991 af3d be04 273d 807b e63d
00000120: 5d3c e3bd a114 b1bd ffb2 4abd 66f4 09be
00000130: e841 04be 9e74 78bd b216 403d d3b0 c53d
00000140: 7058 91bc 5434 b1bd 1d6c 353d aaaf f73d
00000150: e010 debc cc11 44bd f76d 3f3d d2ca a7bd
00000160: a9a9 cabd f6ad febd 6876 ba3d 04ac e03d
00000170: 099d 983d 93e6 d4bc 1201 323d 9d18 a2bd
00000180: f49d 883d 8305 b9bd 0c33 b1bd 9b27 e03d
00000190: 6e3b 87bb 69ee b2bd b113 b93d 73b3 943d
000001a0: 3108 bc3d 2466 90bd ab7a c9bd 6de1 8e3d
000001b0: 2dd8 1d3d 9b41 05bd 555b c43d 5355 dfbc
000001c0: 11f3 86bc 29da 193d ba51 b6bd 9f0d 803d
000001d0: a24f c63b 7044 9a3c 23a2 b53d 79e6 a8bd
000001e0: 19fd 66bc d014 593d 706e 813c 17fe 28bd
000001f0: 0797 adbd 6822 ddbd 70f2 fe3d 9c18 59bd
00000200: 0e7d 75bd c73f 593c 627f 12bd 192b 1a3c
00000210: f707 21bd a6f2 e43c e2b8 603d 64da 92bd
00000220: 3c7d ad3c 2748 cdbd dd26 eebd 212e 43bd
00000230: 4aee aa3d 5819 82bc 3142 c33d 109d 963d
00000240: 4946 793d b926 0abe 4719 6f3d 44e8 b83d
00000250: b936 843d fa69 d5bd 1dbc 233d e9d2 873d
00000260: dcce b53c cd2c 89bd a1fe fe3c d3c6 d7bc
00000270: f8c1 c5bc 6d02 83bd 792c 5cbd faca 993d
00000280: a292 04bd 1db2 833c 5e29 36bd ef2f dfbd
00000290: b175 06bd 08cb 703d ad6c 703d 7772 a73d
000002a0: cf1d 01bc 3607 a1bd 6692 2ebc fcb7 e5bd
000002b0: 39a4 e2bd 321c 10bd fc21 0abd cdce eebd
000002c0: 496f c03d 5819 04bc 7bbf bbbd 2e61 96bd
000002d0: ded8 1b3c 359f a83d eb11 e23d 7852 9e3d
000002e0: 614a ae3d 188c f3bc 40c6 e23d d326 d03d
000002f0: 1604 58bd aff9 843c e176 323d 2965 0a3e
00000300: 5155 f3bd b014 873c a2a4 5d3c 4cbb edbd
00000310: 3093 a13d eb86 fc3d 9c28 c13c 6306 163c
00000320: 5e8f dbbb d269 06be e9fb b03c fb27 c13b
00000330: 1af1 92bd 7e7a da3c 375e 4dbd 0714 c7bc
00000340: a8b3 00be 7e09 da3d dfb5 4b3c 6f84 42bd
00000350: a460 28bd a750 623d 5c2d 59bc ed9a e93d
00000360: adc7 4e3d 11bb 073e 69f9 f5ba df84 69bd
00000370: dd1a 893d 1940 d1bd 1390 51bd 5ced a03d
00000380: 163d 31bd c579 083d 79b1 67bd 1b9b 743d
00000390: 53ef da3d 83b9 633d bc85 663d c3bf 1b3d
000003a0: faec 03bc fae1 903d 855b ccbc a713 bebd
000003b0: 6405 41bc ad34 94bd 9c18 b1bd 9981 e6bd
000003c0: 6b58 a1bc edf1 9cbd 91f7 a93d 243b ebbd
000003d0: 2ae4 99bd a2dd 3dbd 5039 6e3d d1e8 7c3d
000003e0: 5280 c5bd 36bf b33c 50c1 7c3d 1150 923d
000003f0: 8aff d5bd 9c9e 56bd 9d84 ab3c 1aff b23d

sequential/conv2d_3/Conv2D i1 [144, 3, 3, 96]
7 -25 -64 -47 32 -7 -3 -10
-28 -21 -39 -2 -73 24 21 48
34 -28 -33 13 -34 -101 11 -1
-23 60 30 123 24 -2 -2 -43
26 -7 -17 -65 -43 86 70 8
-13 50 7 52 -5 5 -35 -5
-3 17 -68 -100 -63 -29 -29 38
11 50 28 88 24 40 77 31
-4 -20 -34 -37 -26 -2 61 -22
-28 -20 -4 -16 -15 -25 -47 -22
20 -56 -37 -80 -52 73 -54 63
-12 -5 100 -23 -21 -42 -2 23
53 3 -4 -14 54 -25 22 -2
-10 -18 -16 -23 -65 27 20 93
37 -35 -29 6 3 -113 3 -18
-46 46 13 52 30 -1 -9 -20
58 9 -44 -71 -47 116 35 5
-26 45 -16 74 -15 8 -47 -5
2 26 -51 -99 -52 -40 -13 7
3 54 -18 95 60 50 103 17
-14 -26 -29 -51 -18 -18 37 -17
-18 -28 -38 -25 -33 -45 -67 -65
14 -15 -50 -21 -44 9 -24 47
-24 5 84 -31 -7 -19 -10 2
54 22 30 -37 46 -1 46 5
35 -13 22 -28 -69 -22 25 86
43 -33 -44 2 7 -93 18 -7
-37 59 49 14 49 -12 -3 29
59 4 -47 -47 -50 56 31 -2
-33 47 8 51 -17 12 3 -7
7 9 -23 -77 -49 -39 -12 33
-4 54 -25 88 42 71 36 0
00000000: 07e7 c0d1 20f9 fdf6 e4eb d9fe b718 1530
00000010: 22e4 df0d de9b 0bff e93c 1e7b 18fe fed5
00000020: 1af9 efbf d556 4608 f332 0734 fb05 ddfb
00000030: fd11 bc9c c1e3 e326 0b32 1c58 1828 4d1f
00000040: fcec dedb e6fe 3dea e4ec fcf0 f1e7 d1ea
00000050: 14c8 dbb0 cc49 ca3f f4fb 64e9 ebd6 fe17
00000060: 3503 fcf2 36e7 16fe f6ee f0e9 bf1b 145d
00000070: 25dd e306 038f 03ee d22e 0d34 1eff f7ec
00000080: 3a09 d4b9 d174 2305 e62d f04a f108 d1fb
00000090: 021a cd9d ccd8 f307 0336 ee5f 3c32 6711
000000a0: f2e6 e3cd eeee 25ef eee4 dae7 dfd3 bdbf
000000b0: 0ef1 ceeb d409 e82f e805 54e1 f9ed f602
000000c0: 3616 1edb 2eff 2e05 23f3 16e4 bbea 1956
000000d0: 2bdf d402 07a3 12f9 db3b 310e 31f4 fd1d
000000e0: 3b04 d1d1 ce38 1ffe df2f 0833 ef0c 03f9
000000f0: 0709 e9b3 cfd9 f421 fc36 e758 2a47 2400

sequential/conv2d_2/Conv2D i1 [96, 3, 3, 64]
28 -24 48 15 -63 42 -12 -44
-11 20 13 -32 -39 -33 29 -2
-6 21 -16 37 20 -36 -53 -27
-11 -15 66 -37 -18 -5 -52 -103
-41 19 -53 -35 -69 -14 -25 46
9 -40 -35 121 -21 -65 61 -22
-26 -19 16 6 0 73 -3 -94
-38 -40 2 -25 58 -2 1 -22
-10 -12 47 22 -82 53 -6 -42
-28 3 29 15 -22 -30 16 -29
-25 47 -28 3 -3 -37 -39 -25
-1 -5 49 -40 -34 -1 -60 -127
12 36 -49 17 -26 -35 2 7
-28 -30 -47 88 2 -61 66 -11
-8 -54 7 -1 -4 -1 20 -82
-56 -4 12 -63 67 -4 -33 -44
-20 -26 53 74 -69 29 16 4
9 46 53 37 -34 -39 23 -19
-28 49 -22 -2 -1 -47 -44 -16
36 14 24 -49 -23 30 -58 -116
53 38 -45 -4 -7 -19 81 -21
-5 -22 -29 31 16 -55 58 15
51 -46 -7 -26 -17 -65 23 -87
-57 22 -12 -56 104 -10 -29 -13
19 -49 13 -21 -42 38 -31 -41
19 -30 30 -19 -42 -11 -47 -11
1 54 -43 -9 -45 5 -1 -4
-28 -11 67 -51 -10 -20 -19 -66
-113 -11 -66 31 -34 -56 -14 40
-43 -70 -34 67 -53 -78 21 11
-35 -34 50 -13 -13 58 -15 -56
7 -80 -6 -33 -5 -75 9 -23
00000000: 1ce8 300f c12a f4d4 f514 0de0 d9df 1dfe
00000010: fa15 f025 14dc cbe5 f5f1 42db eefb cc99
00000020: d713 cbdd bbf2 e72e 09d8 dd79 ebbf 3dea
00000030: e6ed 1006 0049 fda2 dad8 02e7 3afe 01ea
00000040: f6f4 2f16 ae35 fad6 e403 1d0f eae2 10e3
00000050: e72f e403 fddb d9e7 fffb 31d8 deff c481
00000060: 0c24 cf11 e6dd 0207 e4e2 d158 02c3 42f5
00000070: f8ca 07ff fcff 14ae c8fc 0cc1 43fc dfd4
00000080: ece6 354a bb1d 1004 092e 3525 ded9 17ed
00000090: e431 eafe ffd1 d4f0 240e 18cf e91e c68c
000000a0: 3526 d3fc f9ed 51eb fbea e31f 10c9 3a0f
000000b0: 33d2 f9e6 efbf 17a9 c716 f4c8 68f6 e3f3
000000c0: 13cf 0deb d626 e1d7 13e2 1eed d6f5 d1f5
000000d0: 0136 d5f7 d305 fffc e4f5 43cd f6ec edbe
000000e0: 8ff5 be1f dec8 f228 d5ba de43 cbb2 150b
000000f0: ddde 32f3 f33a f1c8 07b0 fadf fbb5 09e9

sequential/conv2d_1/Conv2D i1 [64, 3, 3, 32]
23 -20 -4 -20 50 -58 -58 -114
105 -28 7 -12 40 -45 -28 -79
-74 -4 -43 -86 0 -21 28 3
32 -46 -17 -65 -67 19 81 -19
31 22 -16 -53 -40 15 30 -83
6 123 -2 -11 -9 -46 -44 67
-57 -13 -28 -19 0 99 -23 -10
-10 -26 -5 53 -42 1 39 0
-14 24 -68 -82 -62 -40 -18 -50
11 31 -21 -24 -26 -77 -41 27
-38 -79 -47 -8 0 46 -27 -17
-9 -91 -32 21 19 12 -59 -17
4 40 -34 -106 -46 12 -27 -77
16 66 -35 -13 -3 -17 -30 21
-79 31 -22 4 0 28 -30 -3
-13 -34 -11 26 -39 33 27 -23
26 26 -55 -52 -42 12 30 -1
-32 109 -27 -14 -36 -54 -52 67
-64 -44 -30 5 0 79 -7 -17
-20 -37 -10 47 17 32 10 -11
-30 24 -126 -70 -44 -99 -72 77
7 -49 -25 -9 -26 -49 -48 -30
-56 -107 -40 -4 0 -1 4 -20
-18 -76 -21 35 3 37 -100 -11
-3 52 -54 -100 -60 37 3 -69
-32 90 -69 -19 -1 -31 -46 59
-81 13 -23 44 0 63 -35 -19
-24 -29 -13 49 -22 36 -12 -41
0 10 -68 -3 -28 -45 24 80
-19 18 -47 -11 -33 -27 -54 35
-68 -48 -10 15 0 38 9 -29
-27 -22 -13 58 33 32 -52 1
00000000: 17ec fcec 32c6 c68e 69e4 07f4 28d3 e4b1
00000010: b6fc d5aa 00eb 1c03 20d2 efbf bd13 51ed
00000020: 1f16 f0cb d80f 1ead 067b fef5 f7d2 d443
00000030: c7f3 e4ed 0063 e9f6 f6e6 fb35 d601 2700
00000040: f218 bcae c2d8 eece 0b1f ebe8 e6b3 d71b
00000050: dab1 d1f8 002e e5ef f7a5 e015 130c c5ef
00000060: 0428 de96 d20c e5b3 1042 ddf3 fdef e215
00000070: b11f ea04 001c e2fd f3de f51a d921 1be9
00000080: 1a1a c9cc d60c 1eff e06d e5f2 dcca cc43
00000090: c0d4 e205 004f f9ef ecdb f62f 1120 0af5
000000a0: e218 82ba d49d b84d 07cf e7f7 e6cf d0e2
000000b0: c895 d8fc 00ff 04ec eeb4 eb23 0325 9cf5
000000c0: fd34 ca9c c425 03bb e05a bbed ffe1 d23b
000000d0: af0d e92c 003f dded e8e3 f331 ea24 f4d7
000000e0: 000a bcfd e4d3 1850 ed12 d1f5 dfe5 ca23
000000f0: bcd0 f60f 0026 09e3 e5ea f33a 2120 cc01

sequential/dense/MatMul i1 [32, 9216] scale=0.0015220885 zero_point=0
0.01065462 -0.006088354 0.019787151 -0.03196386 0.016742975 -0.038052212 0.0091325315 -0.045662656
-0.019787151 0.0045662657 0.068493985 -0.003044177 -0.012176708 -0.059361454 0.0045662657 -0.012176708
-0.05175101 0.02130924 -0.028919682 0.027397593 0.039574303 0.044140566 -0.045662656 -0.038052212
0.0045662657 0.024353417 0.0045662657 -0.019787151 0.0045662657 0.015220885 0.015220885 -0.024353417
-0.065449804 0.003044177 -0.03348595 -0.038052212 -0.003044177 -0.025875505 -0.039574303 -0.054795187
0.012176708 -0.019787151 -0.04109639 0.015220885 -0.048706833 0.03196386 -0.01065462 0.0076104426
-0.0045662657 0.076104425 0.0015220885 0.012176708 0.015220885 0.006088354 0.019787151 -0.015220885
-0.044140566 -0.03044177 -0.045662656 -0.022831328 -0.045662656 0.04109639 -0.015220885 -0.0015220885
-0.028919682 -0.003044177 0.0045662657 -0.019787151 -0.03348595 -0.02130924 0.0 -0.028919682
0.003044177 0.035008036 -0.024353417 0.006088354 0.0076104426 -0.015220885 -0.0045662657 0.015220885
0.027397593 -0.039574303 -0.0091325315 -0.03044177 0.006088354 -0.0076104426 -0.01065462 0.02130924
0.050228924 -0.038052212 0.0669719 -0.003044177 -0.027397593 -0.0532731 0.016742975 0.027397593
0.027397593 -0.003044177 -0.0045662657 -0.016742975 -0.04109639 -0.01065462 0.039574303 -0.015220885
-0.024353417 -0.035008036 -0.038052212 -0.0045662657 -0.03348595 -0.01065462 -0.0015220885 -0.0091325315
0.019787151 0.01065462 0.08067069 0.003044177 0.0 0.019787151 -0.016742975 -0.068493985
-0.050228924 -0.045662656 0.0 0.01065462 -0.028919682 0.0091325315 -0.039574303 0.0045662657
0.039574303 -0.045662656 0.0 -0.054795187 -0.039574303 0.025875505 -0.038052212 0.0
-0.06088354 0.03348595 -0.022831328 0.012176708 0.01065462 -0.013698797 0.039574303 0.015220885
0.022831328 -0.03196386 -0.039574303 -0.0091325315 -0.024353417 0.018265063 0.003044177 -0.024353417
-0.02130924 -0.036530126 0.04261848 -0.0091325315 -0.047184743 -0.03348595 0.0076104426 -0.0045662657
-0.01065462 -0.003044177 -0.059361454 0.04109639 0.059361454 0.03044177 -0.012176708 0.0
-0.027397593 -0.02130924 -0.003044177 -0.0015220885 -0.038052212 -0.003044177 -0.019787151 0.022831328
-0.03196386 0.047184743 0.03348595 -0.024353417 0.0 0.07458234 -0.047184743 -0.07458234
-0.039574303 -0.003044177 -0.024353417 -0.006088354 -0.04261848 0.016742975 -0.02130924 0.05175101
-0.016742975 0.045662656 0.01065462 0.03044177 0.0091325315 -0.054795187 -0.024353417 0.013698797
-0.039574303 -0.047184743 -0.019787151 -0.044140566 0.07153816 0.012176708 -0.013698797 -0.03348595
0.003044177 -0.015220885 -0.065449804 -0.018265063 -0.048706833 0.003044177 0.036530126 0.015220885
-0.01065462 0.003044177 -0.012176708 -0.015220885 -0.04261848 0.024353417 0.02130924 -0.0045662657
0.0045662657 -0.013698797 -0.0091325315 0.0015220885 0.039574303 0.016742975 -0.056317277 0.027397593
0.05175101 0.0045662657 0.016742975 0.0 -0.006088354 -0.08067069 0.03044177 -0.019787151
0.028919682 -0.065449804 -0.016742975 -0.0045662657 -0.038052212 -0.018265063 0.0 -0.01065462
-0.04109639 -0.04109639 -0.0669719 -0.027397593 -0.01065462 -0.015220885 -0.006088354 -0.039574303
00000000: 07fc 0deb 0be7 06e2 f303 2dfe f8d9 03f8
00000010: de0e ed12 1a1d e2e7 0310 03f3 030a 0af0
00000020: d502 eae7 feef e6dc 08f3 e50a e015 f905
00000030: fd32 0108 0a04 0df6 e3ec e2f1 e21b f6ff
00000040: edfe 03f3 eaf2 00ed 0217 f004 05f6 fd0a
00000050: 12e6 faec 04fb f90e 21e7 2cfe eedd 0b12
00000060: 12fe fdf5 e5f9 1af6 f0e9 e7fd eaf9 fffa
00000070: 0d07 3502 000d f5d3 dfe2 0007 ed06 e603
00000080: 1ae2 00dc e611 e700 d816 f108 07f7 1a0a
00000090: 0feb e6fa f00c 02f0 f2e8 1cfa e1ea 05fd
000000a0: f9fe d91b 2714 f800 eef2 feff e7fe f30f
000000b0: eb1f 16f0 0031 e1cf e6fe f0fc e40b f222
000000c0: f51e 0714 06dc f009 e6e1 f3e3 2f08 f7ea
000000d0: 02f6 d5f4 e002 180a f902 f8f6 e410 0efd
000000e0: 03f7 fa01 1a0b db12 2203 0b00 fccb 14f3
000000f0: 13d5 f5fd e7f4 00f9 e5e5 d4ee f9f6 fce6
