saved_model/1.2/model.tflite (tflite, 409904 bytes, 18 tensors)

sequential_23/dense_45/BiasAdd/ReadVariableOp f4 [21]
00000000: 3458 7b3b 30ee be3c c601 843c 76f4 d0bb
00000010: 96e6 923c 044d 993c 437b 2f3c eaf6 833b
00000020: cb81 413d f138 81bc e07b a7bb f19c dfbc
00000030: 3085 1dbc 8dae f7bb 9be4 8abc d4ad 09bd
00000040: 735b 0ebd c13c bebc a080 e8bc a86c abbc
00000050: 0c31 05ba
0.0038352134 0.023306936 0.016114127 -0.0063767983 0.017932218 0.018713482 0.01071054 0.004027237
0.04724292 -0.015774222 -0.0051112026 -0.027296515 -0.009614274 -0.00755865 -0.01695471 -0.03361304
-0.03475518 -0.02322233 -0.028381646 -0.020925835 -0.0005080856

sequential_23/conv2d_59/BiasAdd/ReadVariableOp f4 [144]
00000000: 7f1b fbbd 4758 86bd bac5 febd 1580 7bbd
00000010: 61f7 f8bd 6b6a 9dbd 9c96 aebd f6b5 93bd
00000020: 5c7b 2cbe 3967 07be 582b abbd 0de8 59bd
00000030: 622f 0fbe 7696 9dbd 23db 01be f624 8fbd
00000040: 314c b3bd cbd7 d2bd 87c2 14be 80c1 e2bd
00000050: 07ef 1bbe 86f5 b0bd cad4 e5bd 504f c2bd
00000060: d2fd 93bd d822 acbd 3799 02be c030 08be
00000070: ce7c cfbd 116f c4bd ccdd f2bd 7e55 b2bd
00000080: e63f 74bd 88fd afbd d284 f5bd 3032 aebd
00000090: 8361 cebd ec74 45bd 94cd efbd 74a7 84bd
000000a0: 39f8 87bd 9d21 ccbd 1e33 57be 7832 1ebe
000000b0: 3a28 e6bd 0f75 ecbd b150 aabd 006d fcbd
000000c0: d033 7abd ccde 0bbe 18c5 05be 2f18 00be
000000d0: 4bdd e8bd 3c80 b6bd 52e7 a9bd 1335 f0bd
000000e0: 94b7 e7bd b0a4 e7bd fda1 fcbd e383 99bd
000000f0: 10cc ebbd 24d0 d5bd 400f c1bd 01ab 63bd
00000100: 6384 e5bd d7ca aabd 5daa 98bd 9a07 e9bd
00000110: fcf3 e7bd 1f69 a2bd 957b ddbd e18d debd
00000120: 1e07 3dbd d6c9 03be 724a 03be 32b2 90bd
00000130: 1380 a1bd aa18 20be 5c84 c0bd 268f 97bd
00000140: 1788 09be 48a4 51bd b598 08be 080d 30be
00000150: 7351 0ebe 9ccb bdbd b0e0 09be 13a3 9dbd
00000160: 491c 21be 4e52 febd 4a2b 17be f930 dfbd
00000170: 85c2 c9bd 3487 e1bd 494a e3bd b07f f8bd
00000180: 39fb d2bd 1c44 e2bd de2a 0abe 661b a5bd
00000190: ab1f 18be d440 e4bb e047 c4bd a497 fbbd
000001a0: d939 b3bd 4fb3 3bbd b47f 38bd d7a2 02be
000001b0: 5ce2 babd cd6a 50bd 163e 00be 00e8 95bd
000001c0: 25ab 05be 5e82 28be 6e06 0abe e04e 1cbd
000001d0: e3a4 02be 3665 0dbe 5b55 dabd f403 1dbe
000001e0: 8b83 25be b46e 2fbe 92a1 0bbe efac 60bd
000001f0: 2506 cbbd 078d d1bd 4a80 e3bd 6fd3 36be
00000200: c4d5 cebd 5909 f1bd 3950 23be 9aea bcbd
00000210: 004b 88bd 31de e5bd f7f2 d4bd cb3d 86bd
00000220: fb03 aabd da30 03be a82e 0ebe 609d 07be
00000230: fe03 eabd d77d 99bd e554 e8bd 57bb 8abd
-0.12261104 -0.06559806 -0.12440057 -0.061401445 -0.12156559 -0.07686313 -0.0852482 -0.07212441
-0.16843933 -0.1322297 -0.083578765 -0.053199816 -0.13982919 -0.07694714 -0.1268125 -0.069894716
-0.08754767 -0.102950655 -0.14527331 -0.110720634 -0.152279 -0.0864058 -0.11222227 -0.09487784
-0.07226147 -0.084050834 -0.1275376 -0.13299847 -0.101312265 -0.09591497 -0.11858711 -0.087077126
-0.05963125 -0.08593279 -0.11988224 -0.08505666 -0.10077193 -0.04820721 -0.11709133 -0.06477252
-0.066391416 -0.09967349 -0.21015593 -0.1544894 -0.11238141 -0.11545765 -0.08316172 -0.123254776
-0.06108457 -0.13659209 -0.13063467 -0.12509225 -0.11370333 -0.089111775 -0.08296074 -0.11728873
-0.113143116 -0.113107085 -0.12335584 -0.074958585 -0.11513531 -0.1044009 -0.09426737 -0.055583004
-0.112068914 -0.0833947 -0.07454369 -0.11378403 -0.11325833 -0.079302065 -0.10814587 -0.10866905
-0.046149366 -0.12869963 -0.12821367 -0.07065238 -0.07885756 -0.15634409 -0.094002455 -0.0740035
-0.1343082 -0.05118206 -0.13339503 -0.17192471 -0.13898258 -0.09267351 -0.13464618 -0.076971196
-0.15733446 -0.12418042 -0.14762607 -0.10898013 -0.09851555 -0.11012116 -0.11098153 -0.121337295
-0.10301823 -0.11048147 -0.13492915 -0.080618665 -0.1485583 -0.006965736 -0.095840216 -0.122847825
-0.08751268 -0.0458253 -0.045043662 -0.12757431 -0.09125206 -0.050883103 -0.12523684 -0.07319641
-0.13053568 -0.16455981 -0.13479015 -0.03816116 -0.12758212 -0.1380814 -0.106608115 -0.15333539
-0.16163461 -0.17132074 -0.13635853 -0.054852422 -0.09913281 -0.10231977 -0.111084536 -0.17854093
-0.10099366 -0.11769361 -0.15948571 -0.09224434 -0.0665493 -0.1122402 -0.10397904 -0.06554755
-0.083015405 -0.12811604 -0.13884985 -0.13243628 -0.11426543 -0.07494705 -0.11344317 -0.067740135

sequential_23/conv2d_58/BiasAdd/ReadVariableOp f4 [96]
00000000: 9e31 fabd 049c 9dbd 7879 05be 0316 f5bd
00000010: 5e25 10be 42c0 00be 4133 25be ff16 b6bd
00000020: 72c4 dcbd 9b05 f8bd 1982 ecbd 2277 efbd
00000030: 0e96 86bd e877 66be 9ee8 e1bd 3f82 1cbe
00000040: 3beb 0bbe 732f bfbd da28 cfbd c4e8 72bd
00000050: c2f0 17be a77e 09be d0c3 a6bd 5fac b1bd
00000060: 0165 06be e8e7 e8bd 5162 08be dfe6 f9bd
00000070: 71f8 74bd a2be f3bd 50b5 2dbe 8c00 e8bd
00000080: 93ab b4bd 0b3e 87bd fdac 46be 233c a8bd
00000090: 4fd0 18be 74fd 20bd ee4d 0cbe 99bc f6bd
000000a0: 7d7f 03be db03 2cbe 46b7 d0bd 56cc 93bd
000000b0: ba39 0cbe c6f2 3fbe ed1d 03be 3b25 1ebe
000000c0: a899 39bd f7af e7bd 6709 3abe 0200 d8bd
000000d0: d5cc 35be 4fa3 cbbd ecc9 23be d641 88bd
000000e0: dfa7 c2bd 36e6 d5bd d41b 2cbe e307 83bd
000000f0: 17cf abbd 8997 c4bd 04b6 0abe 04ef bdbd
00000100: f1cc 3cbd e990 94bd 973f 83bd 5469 bdbd
00000110: f03a 13be c832 43be c963 01be 3d20 05be
00000120: 77ee ffbd 278b 99bd 0b20 babd 565a b9bd
00000130: 48e1 f7bd 70b6 58be 1440 3cbe 0d8c 23be
00000140: 1428 4bbe f270 1cbe 09a7 05be c89f 0fbe
00000150: 75aa 92bd ccc8 e3bd a9d4 2bbe 0730 09be
00000160: ad70 92bd 226e 80bd dd95 57bd a686 c8bd
00000170: 82e6 f0bd 56b9 21be 0d84 0cbe 2f76 f1bd
-0.12216495 -0.07695773 -0.13034618 -0.11967089 -0.14076754 -0.1257334 -0.16132833 -0.08891105
-0.107796565 -0.12110444 -0.11548252 -0.11692645 -0.065715894 -0.22506678 -0.11030696 -0.1528406
-0.13663952 -0.09335222 -0.10115214 -0.059304014 -0.14837936 -0.1342722 -0.08142817 -0.08675455
-0.13124467 -0.113723576 -0.13318755 -0.12202238 -0.059807245 -0.11901595 -0.16963696 -0.11328229
-0.08821788 -0.06603631 -0.19401927 -0.08214595 -0.14923213 -0.03930421 -0.13701603 -0.12047691
-0.12841602 -0.16798346 -0.10191207 -0.07216708 -0.13693896 -0.18744954 -0.12804385 -0.1544389
-0.045312554 -0.113128595 -0.18167649 -0.105468765 -0.17753918 -0.09943258 -0.15994996 -0.06653182
-0.09504675 -0.104443 -0.1680749 -0.06397989 -0.08389109 -0.095992155 -0.13545996 -0.09274104
-0.046093885 -0.07254202 -0.06408613 -0.09248605 -0.14377952 -0.1906234 -0.12635721 -0.13000579
-0.124966554 -0.07497244 -0.09088143 -0.09050433 -0.12103516 -0.21163344 -0.18383819 -0.15971394
-0.19839507 -0.1527746 -0.13052 -0.14025795 -0.07161418 -0.11122283 -0.16780342 -0.13397227
-0.071503974 -0.06271006 -0.052633155 -0.09791307 -0.11762716 -0.15793356 -0.13722248 -0.1179012

sequential_23/conv2d_57/BiasAdd/ReadVariableOp f4 [64]
00000000: 6cf4 d3bd 6071 b9bd 2ab8 9fbd f718 0ebe
00000010: 1d1a 84bd 94db c5bd 0ce9 d3bd 5a7f 72bd
00000020: 04ca 88bc 7d52 a8bd 1f49 2ebd 8e62 aabd
00000030: 651b 97bd 82bf 85bc 5556 55bd 564f 13bd
00000040: de78 acbd 4ba2 b3bd 2f4f 48bd 5632 abbd
00000050: b04a b2bd 3db1 22bd c67c 6cbd b143 0cbe
00000060: cc5f 84bd c39b 7abd 6e03 cbbd 757d 51bd
00000070: 9998 2fbd b30d 91bd c65d 0cbd 28d3 bdbd
00000080: a7c5 34bd 4f42 a8bd be24 9cbd eeb5 b1bd
00000090: 92e4 2ebd 87ba 62bd a276 a2bd e111 c2bd
000000a0: 830d a9bd 904d 9abd 4be1 eebd b8bd 6bbd
000000b0: d52f aabd 30aa b4bd 4b97 82bd e682 f8bd
000000c0: e4af 57bd 4f9c e2bc 99d3 67bd 9591 94bd
000000d0: 464b a0bd d790 d5bd 16ea 68bd f218 4cbd
000000e0: e0b2 d6bd c69c 84bd ff62 dbbd 5748 9dbd
000000f0: 2784 97bd 1c2d 98bd 62ad bfba 1df5 9cbd
-0.10349354 -0.09054828 -0.077987984 -0.13876711 -0.06450293 -0.09661022 -0.103471845 -0.059203483
-0.016697891 -0.082188584 -0.042550202 -0.08319579 -0.07378272 -0.01632667 -0.052084286 -0.035964333
-0.08421491 -0.08771189 -0.04890364 -0.0835921 -0.08705652 -0.03971981 -0.05773618 -0.13697697
-0.06463584 -0.061183702 -0.099127635 -0.051145036 -0.042870138 -0.07082691 -0.034269117 -0.092687905
-0.04413381 -0.08215772 -0.076241955 -0.086772785 -0.04269845 -0.055353668 -0.07932784 -0.094760664
-0.0825453 -0.07534325 -0.11664065 -0.057553977 -0.083099045 -0.08821523 -0.06376513 -0.12134342
-0.052657977 -0.027662424 -0.05659828 -0.0725433 -0.07826857 -0.10428017 -0.056863867 -0.049828477
-0.104833364 -0.06475215 -0.107122414 -0.07679813 -0.07398253 -0.07430479 -0.0014623816 -0.07663939

sequential_23/conv2d_56/BiasAdd/ReadVariableOp f4 [32]
00000000: e19e 413d e104 0a3b bbfb f63b 91d6 5d3c
00000010: 48fc b43c 10be a93c eccc ce3c 4701 c43c
00000020: e172 a63c 418d a83b df7c 1d3d 1985 873c
00000030: 7787 023c 3d72 093d c62e 593c 3456 c13b
00000040: 1efa 0bbb 0ad8 9e3c 7068 efb9 1425 363c
00000050: 4ffe b1b9 34c1 53bb c89e 0abc 0116 d73c
00000060: a457 0f3c f91e 08bc d400 b93c 1b68 ba3c
00000070: c322 31bb bc1f 073d 8742 473c 9438 603c
0.04727066 0.0021060037 0.007537333 0.013539926 0.022092953 0.020720512 0.025244199 0.02392639
0.02031845 0.005143792 0.038449164 0.016542958 0.007966868 0.03355621 0.013255781 0.005900169
-0.0021358798 0.019390125 -0.00045663444 0.011117239 -0.00033949545 -0.0032311203 -0.008460708 0.02625561
0.0087489225 -0.008308166 0.022583403 0.02275472 -0.0027028776 0.03298925 0.012161857 0.013685364

sequential_23/batch_normalization_44/FusedBatchNormV3 f4 [32]
00000000: edca 9041 71fd ff41 75ad e741 87db e741
00000010: 71fb 0142 75d6 ac41 52fe b941 aa6a 8f41
00000020: b5a2 df41 680b eb41 9f53 9941 2149 7741
00000030: 0619 0042 9ac4 b041 05d3 9841 dc89 f041
00000040: 0828 7a41 db0a d941 ec60 f441 88c1 f441
00000050: 0e10 fb41 c7b1 f841 9204 fe41 246e e841
00000060: 41e8 9741 0861 1b41 df04 0142 942a a041
00000070: 6df0 3f41 ecb5 c541 3907 0142 0361 f741
18.099085 31.99875 28.959696 28.982191 32.49555 21.604715 23.24918 17.927082
27.954447 29.38057 19.16583 15.455354 32.024437 22.095997 19.103037 30.067314
15.634773 27.1303 30.547325 30.594498 31.38284 31.086805 31.752232 29.05378
18.988405 9.711189 32.254757 20.02079 11.996198 24.713829 32.257053 30.922369

sequential_23/batch_normalization_44/FusedBatchNormV31 f4 [32]
00000000: c4f9 9bbf 39cd a23d 41e7 a1be d24d 7ebe
00000010: ba4e 8abd f213 5bbf db4c 41bf da9e efbe
00000020: 84ef 70be 85eb babe 69e1 8ebf 858b aebf
00000030: 924f ca3c 1391 95bf 5b39 8ebf 5974 f4bd
00000040: 829c 02bf 7ec0 d3bd ced7 5f3b 4469 7ebd
00000050: 5cef f235 8ab4 06ba 4fe6 96b5 ccc6 2fbf
00000060: 24c8 89be be1f afbf e065 09bb 06c7 32bf
00000070: d861 34bf 74ba 9ebf 22ec 213e f2a3 9bbd
-1.2185597 0.07949299 -0.31621745 -0.24834374 -0.06753297 -0.8557731 -0.755079 -0.46800882
-0.23528868 -0.36507812 -1.116254 -1.3636328 0.024696145 -1.1684898 -1.1111253 -0.11936254
-0.5102006 -0.10339449 0.003415573 -0.062112108 1.8100068e-06 -0.0005138597 -1.12429e-06 -0.68662715
-0.26910508 -1.3681562 -0.0020965263 -0.69834936 -0.704618 -1.2400651 0.15812734 -0.075996295

sequential_23/batch_normalization_45/FusedBatchNormV3 f4 [64]
00000000: 31f6 2241 a8d6 cb40 af55 9740 dc25 0641
00000010: 5c43 3241 e5f4 4241 5e10 1941 03a4 ca40
00000020: 697b a140 d503 b740 10a5 c940 79be 0a41
00000030: 44e1 3241 c326 b640 3536 e840 6cff 9840
00000040: 79b5 4941 d697 f940 c989 1441 7102 ea40
00000050: 2a9f 6f40 d9d8 1241 2666 a640 5830 e740
00000060: 340d 0541 d091 8240 ad59 9040 a8d2 2341
00000070: 1e4f d640 989b 1641 5802 1b41 a5a1 9c40
00000080: cbf5 9040 2cbe 0041 1dc4 2141 ad1a 1941
00000090: 4da8 aa40 456b 3041 97d1 1d41 84b3 6e41
000000a0: a3f1 9d40 0f21 4241 cc60 1241 a168 8a40
000000b0: 246f 9d40 a8ed f840 c14a 0f41 727b 2841
000000c0: 0dc4 b940 23d2 aa40 4a13 a640 7924 1741
000000d0: 9619 9440 70b9 4641 e6bd 8f40 678c aa40
000000e0: fcfb d740 c6c1 e040 b018 8540 468c 2941
000000f0: b30e f140 f05a bd40 f70f c040 f82d 4e41
10.185105 6.369953 4.7292094 8.384243 11.141445 12.184789 9.566496 6.332521
5.0463147 5.719218 6.301399 8.671502 11.1799965 5.6922317 7.256617 4.7811794
12.606805 7.7997847 9.283639 7.312798 3.7440896 9.177941 5.1999693 7.2246513
8.315723 4.0802994 4.5109468 10.23893 6.697158 9.412987 9.688072 4.894732
4.530004 8.046429 10.110379 9.569013 5.3330445 11.026189 9.863669 14.918827
4.9357467 12.133071 9.148632 4.325272 4.919817 7.779011 8.95575 10.530138
5.805182 5.3381515 5.1898546 9.446404 4.6281233 12.420273 4.491931 5.329639
6.74951 7.023654 4.1592636 10.596746 7.5330443 5.917351 6.001949 12.886223

sequential_23/batch_normalization_45/FusedBatchNormV31 f4 [64]
00000000: 45b4 a0be 0201 e7be 5ab4 d5be ec47 1cbe
00000010: 39d6 87be 4337 c0be 08b9 8b3d a405 19bf
00000020: fbce 62bf 3b81 10bf 68f9 27bf 2ee0 0cbf
00000030: 6391 d4be 63ba d6be 1b6b dabe 8a2a 20bf
00000040: 5919 fbbe 0ec8 a3be 8648 ecbe 772a 89be
00000050: 0a16 e4be 06e3 b4be 244a bebe 2060 f33d
00000060: 8cc8 11bf ba1c d3be bfad a7be 9001 e0be
00000070: 5872 38bf 4e19 19be c0a9 b03c a4dc e3be
00000080: c439 efbe c16a 9abe 7e9f 77be 068a 2bbe
00000090: 2716 12bf f0be f8bc bd50 03bf 76f3 84be
000000a0: 9edf 54be 1bac 51be 9458 f9bd 0df4 cebe
000000b0: 7a35 56be f806 0ebf c04d d2bc a89b 41be
000000c0: 3d4d 48be 60c1 30bf e24f e4be 39b9 e8be
000000d0: 7e3d abbe e615 f9be 7402 01be 8017 c7be
000000e0: 7a6d d2be 691c 91be db80 87be d79d e8be
000000f0: df3c 43be 5f01 03bf 62d9 86bf 1acc f7be
-0.31387535 -0.45117956 -0.4173916 -0.15261811 -0.26530626 -0.3754216 0.06822401 -0.5977423
-0.8859708 -0.5644719 -0.6561494 -0.5502957 -0.4151717 -0.41939077 -0.4265984 -0.6256491
-0.49042776 -0.31988567 -0.4614908 -0.2679021 -0.44548064 -0.35329455 -0.3716594 0.11883569
-0.56946635 -0.41232854 -0.32749745 -0.43751192 -0.72049475 -0.14951059 0.021565318 -0.44504273
-0.4672376 -0.30159572 -0.24181935 -0.1675187 -0.5706505 -0.030364484 -0.5129507 -0.25966996
-0.20788428 -0.2047581 -0.12175098 -0.4042057 -0.20918837 -0.55479383 -0.02567184 -0.18907034
-0.19560714 -0.69045067 -0.44592196 -0.45453814 -0.33445352 -0.4864952 -0.12598592 -0.38885117
-0.4109915 -0.28341988 -0.26465496 -0.45432922 -0.19066189 -0.5117397 -1.053509 -0.48397905

sequential_23/batch_normalization_46/FusedBatchNormV3 f4 [96]
00000000: 7ae3 7440 9fa1 a940 359b 7e40 1481 c340
00000010: 7f60 ac40 7780 4c40 3ca8 ac40 bdf1 ec40
00000020: 8ec2 6e40 ebe5 a940 5ae4 1140 b583 8440
00000030: 3f11 d140 1bc3 0541 3ed3 b540 3938 2041
00000040: c1cf 3840 9d7e be40 ea46 5540 73b4 b040
00000050: 6ec1 0741 354e d140 233b b040 c47c 9a40
00000060: 3502 8940 a00c ee40 6f2e bd40 a8b1 cb40
00000070: 5dfa 3640 3323 8540 af02 8d40 ee1a 8740
00000080: 268d 9740 8b01 8040 fc88 ce40 10f1 6240
00000090: 9fb8 5740 5056 f340 8f6c 5440 11ff 8140
000000a0: 5482 b940 56b1 9740 f6e0 6f40 3365 bc40
000000b0: da65 5440 f569 d840 78af da40 006b 9d40
000000c0: bd65 4640 e62b f840 1b45 a040 3a7b 9540
000000d0: b7ee c240 91d7 fd40 3dee bb40 d735 6a40
000000e0: 57a0 9c40 f924 ce40 3b72 0441 f670 9b40
000000f0: 361c 5440 2d14 f640 65c6 cc40 241d 1840
00000100: 97ba 7140 a806 5d40 1c6d 4240 48c4 b140
00000110: d37a 2240 d566 0a41 4d3d 7c40 18bb f440
00000120: fc3e 7440 d0f7 3f40 8a6d 9740 d4ab 9f40
00000130: bac4 6540 4310 b040 c751 fb40 cc80 3240
00000140: a184 3441 0cf7 2941 93c8 a240 7983 e340
00000150: 4c09 7940 42be 9540 39a5 8240 1f9f bd40
00000160: 551e bf40 15e5 a140 5197 8d40 656e 8640
00000170: 2638 3440 7486 b440 3f17 af40 58b6 0141
3.826384 5.300979 3.978223 6.1095066 5.3867793 3.1953409 5.3955364 7.404509
3.7306247 5.309316 2.2795625 4.1410775 6.533355 8.360133 5.6820364 10.013726
2.8876803 5.9529557 3.3324533 5.5220275 8.484724 6.5407968 5.507219 4.82773
4.2815194 7.439041 5.911918 6.3654366 2.859031 4.160547 4.4065776 4.2220373
4.73598 4.0001884 6.4542217 3.5459633 3.3706434 7.604286 3.319126 4.062386
5.797159 4.7403975 3.7481055 5.8873534 3.3187165 6.762934 6.8339195 4.9193115
3.0999596 7.7553587 5.0084357 4.6712923 6.09164 7.9325643 5.872832 3.6595361
4.8945727 6.4420133 8.277888 4.857539 3.3142219 7.689963 6.399218 2.3767786
3.7770135 3.4535313 3.0379095 5.55521 2.5387466 8.650105 3.9412415 7.6478386
3.8163443 2.9995003 4.7321215 4.989725 3.5901322 5.501985 7.8537326 2.7891111
11.28238 10.622814 5.086984 7.109799 3.8911924 4.679475 4.082669 5.925674
5.9724526 5.059214 4.4247212 4.200976 2.815927 5.6414127 5.4715877 8.1070175

sequential_23/batch_normalization_46/FusedBatchNormV31 f4 [96]
00000000: c35f f6be 482c 35be b6d8 33be 6997 7ebe
00000010: 2091 033d 303b 90be d099 24bf c039 86be
00000020: 406d 6dbd 4082 71bd db23 d5be 08af ca3d
00000030: 9051 30be 8a14 d1be 4168 8cbe d0a7 debc
00000040: 9189 23be b892 b2be a42a f6bd 6e39 5bbe
00000050: 5205 51be 10ec 56bd c0bd 53bd 907c d8bd
00000060: 9667 3abf 185b bebe 4e18 c0be 90ce c3bc
00000070: 14cf b1bd 8751 0ebf c836 553d 1fb8 b2be
00000080: 8e3c 6ebe 0c43 e9be c81a 18bf 8275 18be
00000090: d8d3 dd3d 5220 89bd 9dd7 08bf 14d7 83be
000000a0: 3a40 08bf 0806 603d 0b8b 8bbe f2bd c4be
000000b0: c094 b2bc daca f5be 5efd c9be 0059 ebbe
000000c0: fa88 c4be ccab 74bd 208a 3f3d 5c8c dabe
000000d0: 8010 f33c f4e7 a6be a0c0 37bf 0141 eebe
000000e0: 604e eebd 3d9b 8ebe f61b 97be 2ac5 93be
000000f0: 4d84 12bf 9095 a53c 6606 b0be 0762 88be
00000100: fa42 77be 7ea0 32bf 285f 38be 1da2 4ebe
00000110: 4019 1bbe b2b8 02bf 24c7 76be c474 17bd
00000120: a89a bebe 0398 8fbe d26d 27be 8019 e6bd
00000130: 1f35 94be 9688 bdbe c985 e1bd e6ce a6be
00000140: 5aa5 bdbe 06d6 6cbe fab9 b4be d052 a6be
00000150: c25c 27be 9698 c9be 6693 0abf c450 a1bd
00000160: dc9f 70be dd03 b4be 3e86 f5be e6e4 3bbe
00000170: 5092 3abd f7c3 06bf ba0a 183e 8083 46bc
-0.48119935 -0.17692673 -0.17563137 -0.24862446 0.032120824 -0.28170156 -0.642972 -0.26215935
-0.057965517 -0.058962107 -0.41628918 0.09896666 -0.17218614 -0.40835983 -0.2742329 -0.027179629
-0.15970446 -0.34877563 -0.12019852 -0.21408626 -0.20412186 -0.05247122 -0.05169463 -0.105706334
-0.7281431 -0.37178874 -0.37518543 -0.023902208 -0.08682075 -0.5559315 0.052054197 -0.34906098
-0.23265287 -0.45558965 -0.59415865 -0.14888576 0.108314216 -0.06695618 -0.53454 -0.2575003
-0.53223 0.05469325 -0.2725452 -0.38426167 -0.021799445 -0.48006326 -0.39451116 -0.4596634
-0.38385755 -0.05973415 0.046762586 -0.4268521 0.029670954 -0.3259884 -0.717783 -0.4653397
-0.116360426 -0.27852812 -0.2951352 -0.28861362 -0.57233125 0.020212919 -0.34379882 -0.2663729
-0.24146643 -0.6977614 -0.18005049 -0.20179029 -0.15146351 -0.5106307 -0.24099404 -0.03697659
-0.37227368 -0.28045663 -0.16350487 -0.112353325 -0.28946778 -0.3701827 -0.110118456 -0.32579726
-0.37040216 -0.23128518 -0.3529814 -0.32485056 -0.16343978 -0.39374226 -0.5413116 -0.07876733
-0.23498482 -0.35159197 -0.4795398 -0.18349037 -0.04554969 -0.5264277 0.14847842 -0.012116313

sequential_23/batch_normalization_47/FusedBatchNormV3 f4 [144]
00000000: ca47 e440 0cf2 8040 c06d 1e40 74a5 1a40
00000010: 631d 0541 dc50 3440 d333 9240 ac51 c340
00000020: 5ef5 a040 5d4c 8340 1521 df40 3b4a 6e40
00000030: 1e80 5840 dc17 9f40 c0d4 8b40 8264 4241
00000040: e83b 4840 e8a5 2241 4e22 3641 e183 5140
00000050: bc0d 0941 8c9d 8640 d20e cc40 9814 9240
00000060: 5114 7040 5f35 be40 3f3b a040 683a 9640
00000070: 2d6a 9240 2783 6340 5ed7 5d40 b18e cd40
00000080: b5ed 4940 ed16 e940 cff7 a340 14de a240
00000090: 0bc4 e540 4163 b040 ae87 4f40 23b0 7c40
000000a0: abf2 2940 8f02 9640 fdf2 1941 4ae2 3540
000000b0: ed69 1040 9e0f da40 50e1 6d40 2d3a 6240
000000c0: b1cb 7640 5d8e f540 81ef 0d41 8a46 5f40
000000d0: b682 1840 b4cf 5040 ff3c d340 af05 ec40
000000e0: e740 a640 e72e 0d41 bf7e 9740 28c2 8340
000000f0: 5c8d 7340 daa9 9c40 0423 d340 59cf 3d40
00000100: 33e1 3441 ab3c 0741 a2d9 0741 fdc7 ce40
00000110: 846d 9e40 9679 0d40 f587 0541 20ef 2c40
00000120: 5919 6440 77ac 9a41 907f cc40 c7b9 0641
00000130: 96fc 9440 9be4 e840 83d1 0d41 4bdc e140
00000140: 7dbe d440 20d0 6040 23b3 d240 5030 c140
00000150: f1d1 0541 c2d9 0041 9993 9240 596d 7740
00000160: b7c5 dc40 ea1d 8740 62df ac40 4281 0941
00000170: 743b 9d40 0437 ec40 1610 9a40 4ef0 0441
00000180: 60fe 5140 fcc1 db3f 7f10 9840 eaf0 1e41
00000190: af33 d240 d3d5 2440 6892 b940 96f9 ec40
000001a0: 3139 6440 983a 9640 f8c5 9040 4951 e340
000001b0: 385f 8940 5950 4540 7501 a140 35d1 dc40
000001c0: fe90 ac40 d6e9 f040 66ed 0741 2580 b940
000001d0: 8ca7 c740 67cb 1041 c277 ec40 76d6 e840
000001e0: 7966 2841 0069 1841 9724 fb40 cbdf 2f40
000001f0: 9f06 2841 5192 1841 2199 0f40 f9f1 0b41
00000200: 310f a640 97e9 ff40 96bf 1f41 c869 d340
00000210: 2702 c040 5be8 d540 e56f 7e40 b107 0341
00000220: 7e42 9f40 2c29 9340 8322 d640 fadb 9240
00000230: ed3b b840 4e75 a140 496f c640 005d 0841
7.1337633 4.0295467 2.4754486 2.4163485 8.3196745 2.8174353 4.568826 6.1037197
5.029952 4.1030717 6.9727883 3.7232807 3.3828197 4.9716625 4.3697205 12.149538
3.1286564 10.165504 11.383375 3.2736742 8.565853 4.206732 6.376809 4.565014
3.75124 5.944015 5.007232 4.6946297 4.575461 3.55488 3.46627 6.4236684
3.1551335 7.2840486 5.124 5.089609 7.180181 5.512116 3.2426562 3.9482505
2.6554363 4.6878123 9.621823 2.8419366 2.2564652 6.8144064 3.716877 3.5348008
3.8561823 7.6736283 8.870973 3.4886804 2.382978 3.2626772 6.601196 7.375694
5.1954226 8.823951 4.734222 4.1174507 3.805503 4.895734 6.5980244 2.9657805
11.30498 8.4523115 8.490633 6.4619126 4.9508686 2.210546 8.345693 2.702095
3.564047 19.334211 6.3905716 8.420356 4.6558332 7.277906 8.86365 7.058141
6.648253 3.512703 6.5843673 6.0371475 8.363755 8.053164 4.5805173 3.866049
6.899135 4.2224016 5.4022684 8.594057 4.9135075 7.381716 4.8144636 8.308668
3.2811508 1.7168574 4.7520137 9.933817 6.568809 2.5755508 5.799122 7.405467
3.5659907 4.6946526 4.524166 7.1036725 4.2928734 3.083029 5.031428 6.900538
5.3926992 7.5285444 8.495459 5.7968926 6.2392025 9.049659 7.389619 7.2761793
10.525018 9.525635 7.8482165 2.7480342 10.5016165 9.535722 2.2437212 8.746575
5.1893544 7.9972644 9.984274 6.6066628 6.0002627 6.6846137 3.9755795 8.189378
4.9768667 4.598776 6.691713 4.5893526 5.757315 5.0455694 6.2010846 8.522705

sequential_23/batch_normalization_47/FusedBatchNormV31 f4 [144]
00000000: 0937 1abe 0e3c 98be 1f0e bdbe b6f3 b2be
00000010: 542c 38be 7015 e4be 1b18 67be 2236 85be
00000020: efd1 29be f93a 49be 9eda 07be 31f0 d4be
00000030: a6d9 42be 7763 5ebe f9ed 56be b809 3ebe
00000040: dd6c 9fbe 600e aabd 2f17 e0bd 5cb5 afbe
00000050: 5d95 27be ec40 a6be b466 79be 7f26 8abe
00000060: 20b9 87be 3d24 75be 14f6 64be 2005 6dbe
00000070: b8e8 85be bd5d b7be 65d9 7dbe 88ef 81be
00000080: add2 93be 1e42 4fbe d7d2 5cbe 079b 20be
00000090: b604 44be a4d2 70be da17 67be 674f 3ebe
000000a0: 6fc0 ccbe d356 adbe 824f 07be 75b3 56be
000000b0: fd5f b9be 5a67 32be 6c30 afbe d199 2dbe
000000c0: 17c0 96be 1890 37be 9449 22be 2856 60be
000000d0: 868e 1bbf aa60 8dbe 2234 3abe 3993 4ebe
000000e0: f844 51be 662d 15be b6e3 79be c665 a2be
000000f0: 5237 3fbe 2547 8dbe f20b 7abe 2e9b bdbe
00000100: d1c4 d6bd 5da8 2ebe c60b 0abe fb85 4cbe
00000110: f2ab 66be f047 fabe 55e9 0ebe c543 a6be
00000120: 6bee a3be 14c3 67bd a5b3 3dbe f155 46be
00000130: d40b a0be d3b7 10be 0674 55be 1592 88be
00000140: e05a fdbd 0cc8 b6be b8a5 10be 6494 4cbe
00000150: 0a2e 18be ca0f 44be 2fbb 5dbe f069 5ebe
00000160: a2c9 29be e033 85be bfba 17be fae4 4abe
00000170: d63c 88be 5a81 47be 9bec 68be 4a7a 43be
00000180: 9b9d cfbe 1af0 0dbf ea8d 4ebe 1341 05be
00000190: 8272 33be f8c7 d7be 0835 4dbe 72ab e9bd
000001a0: 5a88 b3be 317e 82be da89 adbe 80b1 f9bd
000001b0: 25d5 94be def4 aebe b1f1 2fbe 3be3 19be
000001c0: 0b37 58be 2e3d 13be eea4 09be ebbb 66be
000001d0: 40b4 69be 2120 1ebe ce02 55be a8af 23be
000001e0: a4ba 16be 09c6 37be 3d6c 18be 5503 d7be
000001f0: 87b7 f6bd a9b4 cebd 300a 9dbe c216 8bbd
00000200: a8fe 58be 1253 f6bd 4893 ffbd 3ccb 05be
00000210: d299 57be ebd5 29be 045a 51be 82f3 92be
00000220: b00e 89be c8c1 8cbe 385b 7abd 18bd 63be
00000230: dab9 72be aa52 73be a2d4 21be f6ff 0cbe
-0.15060057 -0.29733318 -0.36924836 -0.34951562 -0.1798566 -0.44547606 -0.2256779 -0.26017863
-0.1658399 -0.19651403 -0.1326699 -0.41589502 -0.19028339 -0.2171763 -0.20989217 -0.18558395
-0.31137744 -0.08303523 -0.10941922 -0.34318054 -0.16365571 -0.32471406 -0.24355584 -0.26982495
-0.26508427 -0.23939605 -0.22359496 -0.23146486 -0.26154113 -0.35813704 -0.2478996 -0.2537806
-0.2887167 -0.20240065 -0.21564804 -0.15684138 -0.19142422 -0.23517853 -0.22567692 -0.18584977
-0.39990565 -0.33855304 -0.13213924 -0.20966895 -0.36206046 -0.17422238 -0.3421663 -0.16953208
-0.29443428 -0.17926061 -0.1584838 -0.21907866 -0.6076435 -0.2761281 -0.1818395 -0.20173348
-0.20436466 -0.145681 -0.24403271 -0.31718272 -0.18673447 -0.2759334 -0.2441862 -0.37032455
-0.104867585 -0.17056413 -0.13481054 -0.19972984 -0.2252653 -0.4888301 -0.13956197 -0.3247358
-0.32017836 -0.056582525 -0.1852556 -0.19368722 -0.31259024 -0.14132623 -0.2084504 -0.26673952
-0.12370849 -0.356995 -0.14125717 -0.19978482 -0.14861313 -0.19146648 -0.21653436 -0.217201
-0.16580823 -0.2601614 -0.14817332 -0.1981391 -0.26608914 -0.19482937 -0.22746508 -0.19089618
-0.4054993 -0.5544449 -0.20171323 -0.13013105 -0.1752415 -0.42144752 -0.20039761 -0.11409654
-0.35064965 -0.254869 -0.33894235 -0.121920586 -0.29068866 -0.34171194 -0.17182042 -0.15028088
-0.21114747 -0.14378807 -0.13441822 -0.22532623 -0.22822666 -0.15441944 -0.20801851 -0.15984976
-0.14719635 -0.17946638 -0.1488504 -0.4199473 -0.12046724 -0.10093052 -0.30671835 -0.0679145
-0.21190894 -0.12027563 -0.124792635 -0.13065809 -0.21054772 -0.1658551 -0.20444494 -0.28701407
-0.26769018 -0.27491593 -0.06112215 -0.22240102 -0.23703709 -0.23762003 -0.15803769 -0.13769516

sequential_23/conv2d_56/Conv2D f4 [32, 3, 3, 3]
00000000: 5c83 43bc 175e b7bc acc7 b13d a8d7 1cbd
00000010: 157b 613c 7b64 98bd 2b2d 08be d14b c8bd
00000020: b7fb ddbd f2be 5e3d 0df2 72bd 04e9 d03d
00000030: 0b9b e8bc 0828 47bd c41a 46bd 50b0 4c3d
00000040: 4df1 d53d f958 9abc ba17 653d 5b09 d53d
00000050: a926 fd3c 3288 3f3b 9b61 903d 27a3 a83d
00000060: 335e 463d ef6a d5bc 4d89 91bd 043f 693c
00000070: 8de1 ac3d b4de 0bbd 5b65 373d 5a56 3f3d
00000080: 986b d1b9 51ba a9bc 5e27 12bc cd34 b9bc
00000090: 3433 93bc 2e79 a6bb 8b2a fa3a 44ca cfbc
000000a0: 4d4a 42bd 62b4 a43b 347d 44bd 4fc9 43bd
000000b0: 959a 5cbd c96a 903c e682 543d d361 cfbb
000000c0: 5999 97bc 9ea1 51bd 8c33 16bd 006f d7bc
000000d0: 26e4 33bb 6207 b9bb 0013 d93d 11e2 593d
000000e0: 77d6 80bc ad59 363d 8212 073e e29d f53d
000000f0: ab0d 023c d8e3 76bd e519 c2bd 35ed ac3d
00000100: 766f 78bd ad70 033e fd22 48bd 2a3b 82bd
00000110: ee65 a3bd 61cd ac3c d356 7cbd 8261 c8bd
00000120: 0d34 3e3c 80b9 fd3c b266 ebbc ff22 16be
00000130: 343d 71bd 8afa 1ebd 96ab a8bd d547 9b3d
00000140: 6461 d33d 72da 373c 9e5f e03c 4582 883d
00000150: 71ff 02bd 5e05 2fbd f6e9 1d3c 4576 f4bc
00000160: f2c1 4abd 3a9b 23bd bef3 4c3d ef48 b23d
00000170: 1c5b a33b 6def 3bbd da98 26bd 3b23 e6bb
00000180: 9fae 683c d6f9 bdbd a0b4 db3a 6390 343b
00000190: bb86 b73c 5fdb 9e3d 1e5a d9bc 79ac 903d
000001a0: 820f bfbb fc65 aa3c cc89 a9bd 7941 a5bd
000001b0: 71e9 933d 9330 00bc 15d8 a9bc 5e79 86bd
000001c0: ce26 98bd b94b febc 22c9 0bbd 5a7a 2bbc
000001d0: dded 08bd 3c1f 4e3b 971d 393b 4afc 4fbd
000001e0: 806c ec3c 9849 77bd 92b1 5abd c69b d33d
000001f0: 07f1 49bd 8a73 63bd 0def cb3d eecc a4bd
00000200: 6e3d 47bd df4c a4bc 80d4 3cbd 7663 59bd
00000210: 6108 03bd e6b8 92bd cc0b ffbc 1f23 ad3d
00000220: 482b 65bd c43c cbbd 9069 6e3d eed8 883d
00000230: dfc2 bbbd 487e 91bc bf05 11bd 948b d1bc
00000240: 5861 54bd 6a43 91bd 8d97 ef3c 237f c63c
00000250: eb09 533d 8cfc 203d 3ad6 2f3d 86a1 a4bc
00000260: c784 9e3d 3cd3 573d 7a43 bfbd 8c77 48bc
00000270: aa6c cbbd 5d89 f5bd 8019 ac3d fc88 3a3d
00000280: d001 843d 2135 ec3d 5760 aebd 8d50 433d
00000290: c961 eb3c 43f8 c93d c017 83bd a769 373d
000002a0: cacf 2a3d 3a3a 6ebc 5ab1 0fbe c88d 103c
000002b0: de56 bc3c 3932 1d3d aaad 8bbd 6b9b f9bc
000002c0: d1f2 ae3d 3a2d 943d 2f67 303b 5ee9 08be
000002d0: 19d8 8b3d 121b 093b 58ca 373d b002 adbd
000002e0: b85e 85b9 e554 9b3d ccd2 173c a45c 9abd
000002f0: ab0e 143d 7a02 af3d 1613 db3d 412b 80bd
00000300: 85f8 44bc 8680 e9bd 4b7a 1c3a 4c98 4f3d
00000310: e7c0 c5bd d1c1 b93d e322 be3d 7f74 b8bd
00000320: d24d a2bd f8c8 373d 3974 8c3d f9ff 05bd
00000330: 0d36 f83b 9207 bebd d2e6 10bd 89ea 703d
00000340: 9486 cb3d d192 bdbd 3d19 fdbd 83e8 0b3d
00000350: 6120 c7bd 16a6 033c 151e 583d 400a a13d
00000360: c87c 37bd 0f6f 46bd 7bdb 96bc 6c50 923c
00000370: 79df 8ebc 39c6 6bbd f494 673d 53c9 fcbc
00000380: 8034 9a3d b855 323d 0771 d1bd 44db cabd
00000390: 6b8a 123d 1b9b b03d 88b3 83bd 0cb9 0d3d
000003a0: 2601 0f3d 309b 61bd 3afb 8fbd cbd1 05bd
000003b0: fafa 49bd 8ff6 64bc f094 f73b 0a9c ac3c
000003c0: 68da a2bd 2173 de3d f37f dc3d 49dc aabc
000003d0: 1656 8e3c 36d9 dbbd f4ad 74bd 20af 3cbd
000003e0: 5d22 d7bc 529d 413c a44a 28bd c323 c13c
000003f0: e262 dbbc 7c2b 2b3d 204f 893d 65cf 86bc
-0.011933174 -0.022383733 0.086806625 -0.038291603 0.013762255 -0.0744104 -0.1329848 -0.09780086
-0.108390264 0.05438132 -0.05931287 0.10200694 -0.028394243 -0.04862216 -0.04836537 0.049972832
0.10446415 -0.018841254 0.05593083 0.10402175 0.030902224 0.0029225466 0.07049867 0.08234244
0.04842968 -0.026051966 -0.07106266 0.0142362155 0.08441458 -0.034147933 0.044774394 0.04671321
-0.0003994375 -0.020718725 -0.008920519 -0.022608185 -0.017968751 -0.0050803637 0.0019086165 -0.025365002
-0.04743414 0.005026386 -0.047970966 -0.047799405 -0.05385836 0.017629044 0.051882647 -0.0063288
-0.018505739 -0.05117952 -0.036670253 -0.026298046 -0.002744922 -0.005646632 0.10599327 0.05319411
-0.015727265 0.044519115 0.13190654 0.119930044 0.007937829 -0.060275882 -0.09477595 0.08443681
-0.060653172 0.12835951 -0.048861492 -0.06358941 -0.07978426 0.021094026 -0.06160624 -0.09784223
0.01160909 0.030972242 -0.028735492 -0.14661787 -0.05889626 -0.03881315 -0.082358524 0.0758206
0.1032131 0.011221515 0.027389344 0.06665472 -0.03198189 -0.042729728 0.0096383 -0.029841552
-0.049501367 -0.039942957 0.05003714 0.08705317 0.0049852263 -0.04588263 -0.040673114 -0.007023243
0.014201789 -0.09276168 0.0016762204 0.0027551882 0.022403112 0.077566855 -0.026532229 0.070641465
-0.005830706 0.020800583 -0.08278236 -0.080691285 0.0722226 -0.007824081 -0.020732919 -0.06566118
-0.074292764 -0.031041967 -0.034127362 -0.010466183 -0.03342997 0.0031451723 0.0028246397 -0.05077771
0.02886033 -0.06037292 -0.053392 0.10332446 -0.049302127 -0.05553011 0.09957705 -0.080469
-0.04864257 -0.020056186 -0.046101093 -0.05307337 -0.031990413 -0.07164173 -0.031133555 0.084539644
-0.05594948 -0.099236995 0.05820614 0.06682001 -0.09168028 -0.01776041 -0.03540587 -0.025579251
-0.051850647 -0.07092936 0.02924707 0.024230545 0.05152313 0.039303347 0.04292891 -0.020096552
0.07740169 0.052691683 -0.09339042 -0.012235533 -0.099328354 -0.119890906 0.08403301 0.045540795
0.06445658 0.11533571 -0.08514469 0.04768424 0.028733151 0.09861805 -0.06401014 0.044778492
0.04170207 -0.0145402495 -0.14032498 0.008822866 0.02299064 0.038377974 -0.06820233 -0.030469617
0.08542407 0.07235189 0.002691697 -0.13370273 0.06828327 0.0020920676 0.044870704 -0.08447778
-0.00025438308 0.07584552 0.0092665665 -0.07537201 0.0361468 0.08545394 0.10697 -0.0625825
-0.012022142 -0.11401467 0.0005969151 0.05068235 -0.09655934 0.09070171 0.09283998 -0.09006595
-0.07924999 0.044869393 0.06858105 -0.032714818 0.0075748027 -0.09278788 -0.035376377 0.05881742
0.09937778 -0.09256519 -0.123583294 0.034157287 -0.09722973 0.008035203 0.052763063 0.07863283
-0.044796735 -0.048445757 -0.018415203 0.017860614 -0.017440544 -0.057562087 0.056538537 -0.030857718
0.07529545 0.04353878 -0.102266364 -0.09905103 0.035776537 0.08623334 -0.06430727 0.034600303
0.034913205 -0.05507964 -0.070303395 -0.032670777 -0.049311616 -0.0139748 0.0075555965 0.021070499
-0.07951814 0.10861803 0.10766592 -0.020856993 0.017375033 -0.10734789 -0.059736207 -0.04606545
-0.026261503 0.011817293 -0.041086808 0.023576623 -0.02678055 0.041789517 0.06704545 -0.016456315

sequential_23/conv2d_59/Conv2D i1 [144, 3, 3, 96]
00000000: 1359 fec3 0dfb 5b2f 05cd 0500 fe22 e407
00000010: 0218 0ced f5ff ffef 1e14 dff2 e2d4 f60b
00000020: af04 0407 e4e4 f614 0b13 02d5 0640 433b
00000030: 0505 d446 11ff 3bd6 f00c 103c d3d2 43db
00000040: ec05 ef0d ecd2 dadf f217 edbf d3d2 03dd
00000050: 1308 0014 ecff 06fa 1a12 08e5 e23a 341f
00000060: 1e40 d7d3 09f9 4708 e5d4 f9f2 f322 d11a
00000070: 091e 0fee 0ffc ecfb 1fea e80e e7ed 08fa
00000080: b7e6 2d1c e0f6 1908 1c08 00d7 0c3e 2d38
00000090: edfc 071c 1c1e 28cf cfed 3c25 a7c1 34d0
000000a0: c6fe 14fa bdf8 d5e9 e127 d3e8 cbf9 21e7
000000b0: fd2c e81d 1216 fd29 f8ed f9d9 dd3c 1514
000000c0: 0637 f7d7 08f1 eef4 f5d6 dbf0 e31d e025
000000d0: 0e3b 00dc fee9 0900 2cef ed0c daf8 effe
000000e0: b2fe 691d d6f6 0f1d e6db f3f4 fc25 0113
000000f0: f9f6 e7f0 2223 23ee ebf8 4401 caeb 27db
19 89 -2 -61 13 -5 91 47
5 -51 5 0 -2 34 -28 7
2 24 12 -19 -11 -1 -1 -17
30 20 -33 -14 -30 -44 -10 11
-81 4 4 7 -28 -28 -10 20
11 19 2 -43 6 64 67 59
5 5 -44 70 17 -1 59 -42
-16 12 16 60 -45 -46 67 -37
-20 5 -17 13 -20 -46 -38 -33
-14 23 -19 -65 -45 -46 3 -35
19 8 0 20 -20 -1 6 -6
26 18 8 -27 -30 58 52 31
30 64 -41 -45 9 -7 71 8
-27 -44 -7 -14 -13 34 -47 26
9 30 15 -18 15 -4 -20 -5
31 -22 -24 14 -25 -19 8 -6
-73 -26 45 28 -32 -10 25 8
28 8 0 -41 12 62 45 56
-19 -4 7 28 28 30 40 -49
-49 -19 60 37 -89 -63 52 -48
-58 -2 20 -6 -67 -8 -43 -23
-31 39 -45 -24 -53 -7 33 -25
-3 44 -24 29 18 22 -3 41
-8 -19 -7 -39 -35 60 21 20
6 55 -9 -41 8 -15 -18 -12
-11 -42 -37 -16 -29 29 -32 37
14 59 0 -36 -2 -23 9 0
44 -17 -19 12 -38 -8 -17 -2
-78 -2 105 29 -42 -10 15 29
-26 -37 -13 -12 -4 37 1 19
-7 -10 -25 -16 34 35 35 -18
-21 -8 68 1 -54 -21 39 -37

sequential_23/conv2d_58/Conv2D i1 [96, 3, 3, 64]
00000000: 38f0 eeda 2709 ed07 f36b 272e 1ffd 0b28
00000010: daf0 0f09 424f c625 2ac4 be2a 34f1 f3d1
00000020: 15ff 3001 0629 2001 d60b 0fe0 f11e f6df
00000030: 1ae9 f9fc 1aee db1f eae9 fd3a f4f0 1b3f
00000040: feef d7e5 fe15 0b20 ef66 1350 0fe1 113a
00000050: dad6 0904 2c54 e3c1 03fd ca49 3ff7 f5f8
00000060: fc02 f728 1c28 12fc df00 d6fe e70f 12dd
00000070: 03ff 1c16 00f1 c5f5 c01a ec1a 1d11 162d
00000080: 1409 03ff 121f fe00 f02d 3456 1106 0a30
00000090: 04d6 2603 1f26 ecd8 1ac6 df20 3702 fde5
000000a0: f4eb 17f8 e406 11f5 d50e ebf1 d10a f3e3
000000b0: 0112 0013 f6e6 d101 f711 1511 293b 00fe
000000c0: e8ec d7d0 021d e9ff da57 1015 25cf 1935
000000d0: c625 0a11 0e16 d220 27cd af41 3dc4 0bea
000000e0: 020b 29fd 300a 450f f01e e0d4 e005 04fc
000000f0: 15d4 f616 e407 c603 e6fd 0221 f6f7 f14e
56 -16 -18 -38 39 9 -19 7
-13 107 39 46 31 -3 11 40
-38 -16 15 9 66 79 -58 37
42 -60 -66 42 52 -15 -13 -47
21 -1 48 1 6 41 32 1
-42 11 15 -32 -15 30 -10 -33
26 -23 -7 -4 26 -18 -37 31
-22 -23 -3 58 -12 -16 27 63
-2 -17 -41 -27 -2 21 11 32
-17 102 19 80 15 -31 17 58
-38 -42 9 4 44 84 -29 -63
3 -3 -54 73 63 -9 -11 -8
-4 2 -9 40 28 40 18 -4
-33 0 -42 -2 -25 15 18 -35
3 -1 28 22 0 -15 -59 -11
-64 26 -20 26 29 17 22 45
20 9 3 -1 18 31 -2 0
-16 45 52 86 17 6 10 48
4 -42 38 3 31 38 -20 -40
26 -58 -33 32 55 2 -3 -27
-12 -21 23 -8 -28 6 17 -11
-43 14 -21 -15 -47 10 -13 -29
1 18 0 19 -10 -26 -47 1
-9 17 21 17 41 59 0 -2
-24 -20 -41 -48 2 29 -23 -1
-38 87 16 21 37 -49 25 53
-58 37 10 17 14 22 -46 32
39 -51 -81 65 61 -60 11 -22
2 11 41 -3 48 10 69 15
-16 30 -32 -44 -32 5 4 -4
21 -44 -10 22 -28 7 -58 3
-26 -3 2 33 -10 -9 -15 78

sequential_23/conv2d_57/Conv2D i1 [64, 3, 3, 32]
00000000: 11f6 97ff f45b 1cff e5d2 4dfb f12d bacd
00000010: a407 009d 00ff 00fc afe5 f4a5 e928 0722
00000020: 3af6 acf1 f1e4 381e f3ba c84c f523 1e04
00000030: c8f3 008e 00ff 00fc f061 eeb3 dc19 06d9
00000040: 25f2 f0e0 fedc 179b 12c3 12bd f403 583b
00000050: edca 00c0 00ff 0001 19f3 08f2 4af5 06f8
00000060: f5fe aefa e5fa f224 e5b1 fe23 ec2e efdf
00000070: fbd9 00a5 00ff 00fd c13d f745 e450 edcd
00000080: 23f8 d5f1 f392 3a55 03d5 1a4e f345 03fe
00000090: ccd3 00bb 00ff 0012 eeb3 041c 1b31 e9bd
000000a0: 0df2 4002 07f8 10c3 2f17 228e f2b2 3116
000000b0: 1527 0029 00ff 0021 17ee 14b0 4e11 f1ea
000000c0: eefb 0af0 f017 014a 07ee cd28 f0ac fee8
000000d0: e7fe 00d9 00ff 0014 c824 f9ef f903 ef05
000000e0: cbf2 47f2 f4d7 c263 2735 bcea fcb2 cbeb
000000f0: d7d0 001c 00ff 0016 1d09 0038 1dc9 ea20
17 -10 -105 -1 -12 91 28 -1
-27 -46 77 -5 -15 45 -70 -51
-92 7 0 -99 0 -1 0 -4
-81 -27 -12 -91 -23 40 7 34
58 -10 -84 -15 -15 -28 56 30
-13 -70 -56 76 -11 35 30 4
-56 -13 0 -114 0 -1 0 -4
-16 97 -18 -77 -36 25 6 -39
37 -14 -16 -32 -2 -36 23 -101
18 -61 18 -67 -12 3 88 59
-19 -54 0 -64 0 -1 0 1
25 -13 8 -14 74 -11 6 -8
-11 -2 -82 -6 -27 -6 -14 36
-27 -79 -2 35 -20 46 -17 -33
-5 -39 0 -91 0 -1 0 -3
-63 61 -9 69 -28 80 -19 -51
35 -8 -43 -15 -13 -110 58 85
3 -43 26 78 -13 69 3 -2
-52 -45 0 -69 0 -1 0 18
-18 -77 4 28 27 49 -23 -67
13 -14 64 2 7 -8 16 -61
47 23 34 -114 -14 -78 49 22
21 39 0 41 0 -1 0 33
23 -18 20 -80 78 17 -15 -22
-18 -5 10 -16 -16 23 1 74
7 -18 -51 40 -16 -84 -2 -24
-25 -2 0 -39 0 -1 0 20
-56 36 -7 -17 -7 3 -17 5
-53 -14 71 -14 -12 -41 -62 99
39 53 -68 -22 -4 -78 -53 -21
-41 -48 0 28 0 -1 0 22
29 9 0 56 29 -55 -22 32

sequential_23/dense_45/MatMul i1 [21, 9216] scale=0.00095519586 zero_point=0
00000000: 1218 e615 ff0b e805 fe21 e827 05e9 d121
00000010: 0a07 0e09 d726 e608 04db e20b 18f9 0415
00000020: e2df f8fe 2e27 f9e6 07f8 f6fc d6dd fc15
00000030: 0fff 0302 f5df e9f8 26fc 0b22 dedc fdfc
00000040: e9e8 15ef e305 d30b 09f4 1618 f512 0918
00000050: fbe2 f909 e803 19f9 13e0 0d18 fa00 dd17
00000060: 061d fb02 230d 09f4 d9eb e9f7 f5fb ebf4
00000070: 02e4 2002 fbf1 1bf7 1bec 0b14 f510 0de3
00000080: f9ec 201c 1a1e f6e5 04dd 0805 0c19 0c36
00000090: eafb f7f8 0f21 02f9 1203 da11 1df1 03fc
000000a0: 11ea ed0a dc20 ff2d 1003 c503 eb08 f51c
000000b0: 03da eafa 1202 f8fb d3e9 dd0b e3dc 1cfc
000000c0: fc4a ebfb 02f0 f8ed 18fa e90c fdf3 0e1d
000000d0: 00ed 0ff5 f027 fc14 f9ec ebfb fef0 1b21
000000e0: e8f6 e114 0202 f721 e204 effc d807 def5
000000f0: fd0e 15f7 f306 f8e2 ff0b fae5 fc1e e50e
0.017193526 0.0229247 -0.024835093 0.020059112 -0.00095519586 0.010507154 -0.0229247 0.0047759796
-0.0019103917 0.031521462 -0.0229247 0.03725264 0.0047759796 -0.021969505 -0.044894207 0.031521462
0.009551959 0.006686371 0.013372742 0.008596763 -0.03916303 0.036297444 -0.024835093 0.007641567
0.0038207835 -0.035342246 -0.028655875 0.010507154 0.0229247 -0.006686371 0.0038207835 0.020059112
-0.028655875 -0.031521462 -0.007641567 -0.0019103917 0.04393901 0.03725264 -0.006686371 -0.024835093
0.006686371 -0.007641567 -0.009551959 -0.0038207835 -0.040118225 -0.033431854 -0.0038207835 0.020059112
0.014327938 -0.00095519586 0.0028655876 0.0019103917 -0.010507154 -0.031521462 -0.021969505 -0.007641567
0.036297444 -0.0038207835 0.010507154 0.03247666 -0.03247666 -0.034387052 -0.0028655876 -0.0038207835
-0.021969505 -0.0229247 0.020059112 -0.01623833 -0.02770068 0.0047759796 -0.042983815 0.010507154
0.008596763 -0.01146235 0.021014309 0.0229247 -0.010507154 0.017193526 0.008596763 0.0229247
-0.0047759796 -0.028655875 -0.006686371 0.008596763 -0.0229247 0.0028655876 0.023879897 -0.006686371
0.018148722 -0.030566268 0.0124175465 0.0229247 -0.005731175 0.0 -0.033431854 0.021969505
0.005731175 0.02770068 -0.0047759796 0.0019103917 0.033431854 0.0124175465 0.008596763 -0.01146235
-0.03725264 -0.020059112 -0.021969505 -0.008596763 -0.010507154 -0.0047759796 -0.020059112 -0.01146235
0.0019103917 -0.026745483 0.030566268 0.0019103917 -0.0047759796 -0.014327938 0.025790289 -0.008596763
0.025790289 -0.019103918 0.010507154 0.019103918 -0.010507154 0.015283134 0.0124175465 -0.02770068
-0.006686371 -0.019103918 0.030566268 0.026745483 0.024835093 0.028655875 -0.009551959 -0.025790289
0.0038207835 -0.033431854 0.007641567 0.0047759796 0.01146235 0.023879897 0.01146235 0.051580578
-0.021014309 -0.0047759796 -0.008596763 -0.007641567 0.014327938 0.031521462 0.0019103917 -0.006686371
0.017193526 0.0028655876 -0.036297444 0.01623833 0.02770068 -0.014327938 0.0028655876 -0.0038207835
0.01623833 -0.021014309 -0.018148722 0.009551959 -0.034387052 0.030566268 -0.00095519586 0.042983815
0.015283134 0.0028655876 -0.056356557 0.0028655876 -0.020059112 0.007641567 -0.010507154 0.026745483
0.0028655876 -0.036297444 -0.021014309 -0.005731175 0.017193526 0.0019103917 -0.007641567 -0.0047759796
-0.042983815 -0.021969505 -0.033431854 0.010507154 -0.02770068 -0.034387052 0.026745483 -0.0038207835
-0.0038207835 0.07068449 -0.020059112 -0.0047759796 0.0019103917 -0.015283134 -0.007641567 -0.018148722
0.0229247 -0.005731175 -0.021969505 0.01146235 -0.0028655876 -0.0124175465 0.013372742 0.02770068
0.0 -0.018148722 0.014327938 -0.010507154 -0.015283134 0.03725264 -0.0038207835 0.019103918
-0.006686371 -0.019103918 -0.020059112 -0.0047759796 -0.0019103917 -0.015283134 0.025790289 0.031521462
-0.0229247 -0.009551959 -0.029611072 0.019103918 0.0019103917 0.0019103917 -0.008596763 0.031521462
-0.028655875 0.0038207835 -0.01623833 -0.0038207835 -0.038207836 0.006686371 -0.03247666 -0.010507154
-0.0028655876 0.013372742 0.020059112 -0.008596763 -0.0124175465 0.005731175 -0.007641567 -0.028655875
-0.00095519586 0.010507154 -0.005731175 -0.025790289 -0.0038207835 0.028655875 -0.025790289 0.013372742
